{"format": "layers-model", "generatedBy": "keras v2.15.0", "convertedBy": "TensorFlow.js Converter v4.17.0", "modelTopology": {"keras_version": "2.15.0", "backend": "tensorflow", "model_config": {"class_name": "Sequential", "config": {"name": "sequential_1", "layers": [{"class_name": "InputLayer", "config": {"batch_input_shape": [null, 224, 224, 3], "dtype": "float32", "sparse": false, "ragged": false, "name": "MobilenetV3small_input"}}, {"class_name": "Functional", "config": {"name": "MobilenetV3small", "trainable": true, "layers": [{"module": "keras.layers", "class_name": "InputLayer", "config": {"batch_input_shape": [null, 224, 224, 3], "dtype": "float32", "sparse": false, "ragged": false, "name": "input_2"}, "registered_name": null, "name": "input_2", "inbound_nodes": []}, {"module": "keras.layers", "class_name": "Rescaling", "config": {"name": "rescaling_1", "trainable": false, "dtype": "float32", "scale": 0.00784313725490196, "offset": -1.0}, "registered_name": null, "build_config": {"input_shape": [null, 224, 224, 3]}, "name": "rescaling_1", "inbound_nodes": [[["input_2", 0, 0, {}]]]}, {"module": "keras.layers", "class_name": "Conv2D", "config": {"name": "Conv", "trainable": false, "dtype": "float32", "filters": 16, "kernel_size": [3, 3], "strides": [2, 2], "padding": "same", "data_format": "channels_last", "dilation_rate": [1, 1], "groups": 1, "activation": "linear", "use_bias": false, "kernel_initializer": {"module": "keras.initializers", "class_name": "GlorotUniform", "config": {"seed": null}, "registered_name": null}, "bias_initializer": {"module": "keras.initializers", "class_name": "Zeros", "config": {}, "registered_name": null}, "kernel_regularizer": null, "bias_regularizer": null, "activity_regularizer": null, "kernel_constraint": null, "bias_constraint": null}, "registered_name": null, "build_config": {"input_shape": [null, 224, 224, 3]}, "name": "Conv", "inbound_nodes": [[["rescaling_1", 0, 0, {}]]]}, {"module": "keras.layers", "class_name": "BatchNormalization", "config": {"name": "Conv/BatchNorm", "trainable": false, "dtype": "float32", "axis": [3], "momentum": 0.999, "epsilon": 0.001, "center": true, "scale": true, "beta_initializer": {"module": "keras.initializers", "class_name": "Zeros", "config": {}, "registered_name": null}, "gamma_initializer": {"module": "keras.initializers", "class_name": "Ones", "config": {}, "registered_name": null}, "moving_mean_initializer": {"module": "keras.initializers", "class_name": "Zeros", "config": {}, "registered_name": null}, "moving_variance_initializer": {"module": "keras.initializers", "class_name": "Ones", "config": {}, "registered_name": null}, "beta_regularizer": null, "gamma_regularizer": null, "beta_constraint": null, "gamma_constraint": null}, "registered_name": null, "build_config": {"input_shape": [null, 112, 112, 16]}, "name": "Conv/BatchNorm", "inbound_nodes": [[["Conv", 0, 0, {}]]]}, {"module": "keras.src.layers.core.tf_op_layer", "class_name": "TFOpLambda", "config": {"name": "tf.__operators__.add_27", "trainable": false, "dtype": "float32", "function": "__operators__.add"}, "registered_name": "TFOpLambda", "build_config": {"input_shape": [null, 112, 112, 16]}, "name": "tf.__operators__.add_27", "inbound_nodes": [["Conv/BatchNorm", 0, 0, {"y": 3.0, "name": null}]]}, {"module": "keras.layers", "class_name": "ReLU", "config": {"name": "re_lu_32", "trainable": false, "dtype": "float32", "max_value": 6.0, "negative_slope": 0.0, "threshold": 0.0}, "registered_name": null, "build_config": {"input_shape": [null, 112, 112, 16]}, "name": "re_lu_32", "inbound_nodes": [[["tf.__operators__.add_27", 0, 0, {}]]]}, {"module": "keras.src.layers.core.tf_op_layer", "class_name": "TFOpLambda", "config": {"name": "tf.math.multiply_27", "trainable": false, "dtype": "float32", "function": "math.multiply"}, "registered_name": "TFOpLambda", "build_config": {"input_shape": [null, 112, 112, 16]}, "name": "tf.math.multiply_27", "inbound_nodes": [["re_lu_32", 0, 0, {"y": 0.16666666666666666, "name": null}]]}, {"module": "keras.layers", "class_name": "Multiply", "config": {"name": "multiply_18", "trainable": false, "dtype": "float32"}, "registered_name": null, "build_config": {"input_shape": [[null, 112, 112, 16], [null, 112, 112, 16]]}, "name": "multiply_18", "inbound_nodes": [[["Conv/BatchNorm", 0, 0, {}], ["tf.math.multiply_27", 0, 0, {}]]]}, {"module": "keras.layers", "class_name": "ZeroPadding2D", "config": {"name": "expanded_conv/depthwise/pad", "trainable": false, "dtype": "float32", "padding": [[0, 1], [0, 1]], "data_format": "channels_last"}, "registered_name": null, "build_config": {"input_shape": [null, 112, 112, 16]}, "name": "expanded_conv/depthwise/pad", "inbound_nodes": [[["multiply_18", 0, 0, {}]]]}, {"module": "keras.layers", "class_name": "DepthwiseConv2D", "config": {"name": "expanded_conv/depthwise", "trainable": false, "dtype": "float32", "kernel_size": [3, 3], "strides": [2, 2], "padding": "valid", "data_format": "channels_last", "dilation_rate": [1, 1], "groups": 1, "activation": "linear", "use_bias": false, "bias_initializer": {"module": "keras.initializers", "class_name": "Zeros", "config": {}, "registered_name": null}, "bias_regularizer": null, "activity_regularizer": null, "bias_constraint": null, "depth_multiplier": 1, "depthwise_initializer": {"module": "keras.initializers", "class_name": "GlorotUniform", "config": {"seed": null}, "registered_name": null}, "depthwise_regularizer": null, "depthwise_constraint": null}, "registered_name": null, "build_config": {"input_shape": [null, 113, 113, 16]}, "name": "expanded_conv/depthwise", "inbound_nodes": [[["expanded_conv/depthwise/pad", 0, 0, {}]]]}, {"module": "keras.layers", "class_name": "BatchNormalization", "config": {"name": "expanded_conv/depthwise/BatchNorm", "trainable": false, "dtype": "float32", "axis": [3], "momentum": 0.999, "epsilon": 0.001, "center": true, "scale": true, "beta_initializer": {"module": "keras.initializers", "class_name": "Zeros", "config": {}, "registered_name": null}, "gamma_initializer": {"module": "keras.initializers", "class_name": "Ones", "config": {}, "registered_name": null}, "moving_mean_initializer": {"module": "keras.initializers", "class_name": "Zeros", "config": {}, "registered_name": null}, "moving_variance_initializer": {"module": "keras.initializers", "class_name": "Ones", "config": {}, "registered_name": null}, "beta_regularizer": null, "gamma_regularizer": null, "beta_constraint": null, "gamma_constraint": null}, "registered_name": null, "build_config": {"input_shape": [null, 56, 56, 16]}, "name": "expanded_conv/depthwise/BatchNorm", "inbound_nodes": [[["expanded_conv/depthwise", 0, 0, {}]]]}, {"module": "keras.layers", "class_name": "ReLU", "config": {"name": "re_lu_33", "trainable": false, "dtype": "float32", "max_value": null, "negative_slope": 0.0, "threshold": 0.0}, "registered_name": null, "build_config": {"input_shape": [null, 56, 56, 16]}, "name": "re_lu_33", "inbound_nodes": [[["expanded_conv/depthwise/BatchNorm", 0, 0, {}]]]}, {"module": "keras.layers", "class_name": "GlobalAveragePooling2D", "config": {"name": "expanded_conv/squeeze_excite/AvgPool", "trainable": false, "dtype": "float32", "data_format": "channels_last", "keepdims": true}, "registered_name": null, "build_config": {"input_shape": [null, 56, 56, 16]}, "name": "expanded_conv/squeeze_excite/AvgPool", "inbound_nodes": [[["re_lu_33", 0, 0, {}]]]}, {"module": "keras.layers", "class_name": "Conv2D", "config": {"name": "expanded_conv/squeeze_excite/Conv", "trainable": false, "dtype": "float32", "filters": 8, "kernel_size": [1, 1], "strides": [1, 1], "padding": "same", "data_format": "channels_last", "dilation_rate": [1, 1], "groups": 1, "activation": "linear", "use_bias": true, "kernel_initializer": {"module": "keras.initializers", "class_name": "GlorotUniform", "config": {"seed": null}, "registered_name": null}, "bias_initializer": {"module": "keras.initializers", "class_name": "Zeros", "config": {}, "registered_name": null}, "kernel_regularizer": null, "bias_regularizer": null, "activity_regularizer": null, "kernel_constraint": null, "bias_constraint": null}, "registered_name": null, "build_config": {"input_shape": [null, 1, 1, 16]}, "name": "expanded_conv/squeeze_excite/Conv", "inbound_nodes": [[["expanded_conv/squeeze_excite/AvgPool", 0, 0, {}]]]}, {"module": "keras.layers", "class_name": "ReLU", "config": {"name": "expanded_conv/squeeze_excite/Relu", "trainable": false, "dtype": "float32", "max_value": null, "negative_slope": 0.0, "threshold": 0.0}, "registered_name": null, "build_config": {"input_shape": [null, 1, 1, 8]}, "name": "expanded_conv/squeeze_excite/Relu", "inbound_nodes": [[["expanded_conv/squeeze_excite/Conv", 0, 0, {}]]]}, {"module": "keras.layers", "class_name": "Conv2D", "config": {"name": "expanded_conv/squeeze_excite/Conv_1", "trainable": false, "dtype": "float32", "filters": 16, "kernel_size": [1, 1], "strides": [1, 1], "padding": "same", "data_format": "channels_last", "dilation_rate": [1, 1], "groups": 1, "activation": "linear", "use_bias": true, "kernel_initializer": {"module": "keras.initializers", "class_name": "GlorotUniform", "config": {"seed": null}, "registered_name": null}, "bias_initializer": {"module": "keras.initializers", "class_name": "Zeros", "config": {}, "registered_name": null}, "kernel_regularizer": null, "bias_regularizer": null, "activity_regularizer": null, "kernel_constraint": null, "bias_constraint": null}, "registered_name": null, "build_config": {"input_shape": [null, 1, 1, 8]}, "name": "expanded_conv/squeeze_excite/Conv_1", "inbound_nodes": [[["expanded_conv/squeeze_excite/Relu", 0, 0, {}]]]}, {"module": "keras.src.layers.core.tf_op_layer", "class_name": "TFOpLambda", "config": {"name": "tf.__operators__.add_28", "trainable": false, "dtype": "float32", "function": "__operators__.add"}, "registered_name": "TFOpLambda", "build_config": {"input_shape": [null, 1, 1, 16]}, "name": "tf.__operators__.add_28", "inbound_nodes": [["expanded_conv/squeeze_excite/Conv_1", 0, 0, {"y": 3.0, "name": null}]]}, {"module": "keras.layers", "class_name": "ReLU", "config": {"name": "re_lu_34", "trainable": false, "dtype": "float32", "max_value": 6.0, "negative_slope": 0.0, "threshold": 0.0}, "registered_name": null, "build_config": {"input_shape": [null, 1, 1, 16]}, "name": "re_lu_34", "inbound_nodes": [[["tf.__operators__.add_28", 0, 0, {}]]]}, {"module": "keras.src.layers.core.tf_op_layer", "class_name": "TFOpLambda", "config": {"name": "tf.math.multiply_28", "trainable": false, "dtype": "float32", "function": "math.multiply"}, "registered_name": "TFOpLambda", "build_config": {"input_shape": [null, 1, 1, 16]}, "name": "tf.math.multiply_28", "inbound_nodes": [["re_lu_34", 0, 0, {"y": 0.16666666666666666, "name": null}]]}, {"module": "keras.layers", "class_name": "Multiply", "config": {"name": "expanded_conv/squeeze_excite/Mul", "trainable": false, "dtype": "float32"}, "registered_name": null, "build_config": {"input_shape": [[null, 56, 56, 16], [null, 1, 1, 16]]}, "name": "expanded_conv/squeeze_excite/Mul", "inbound_nodes": [[["re_lu_33", 0, 0, {}], ["tf.math.multiply_28", 0, 0, {}]]]}, {"module": "keras.layers", "class_name": "Conv2D", "config": {"name": "expanded_conv/project", "trainable": false, "dtype": "float32", "filters": 16, "kernel_size": [1, 1], "strides": [1, 1], "padding": "same", "data_format": "channels_last", "dilation_rate": [1, 1], "groups": 1, "activation": "linear", "use_bias": false, "kernel_initializer": {"module": "keras.initializers", "class_name": "GlorotUniform", "config": {"seed": null}, "registered_name": null}, "bias_initializer": {"module": "keras.initializers", "class_name": "Zeros", "config": {}, "registered_name": null}, "kernel_regularizer": null, "bias_regularizer": null, "activity_regularizer": null, "kernel_constraint": null, "bias_constraint": null}, "registered_name": null, "build_config": {"input_shape": [null, 56, 56, 16]}, "name": "expanded_conv/project", "inbound_nodes": [[["expanded_conv/squeeze_excite/Mul", 0, 0, {}]]]}, {"module": "keras.layers", "class_name": "BatchNormalization", "config": {"name": "expanded_conv/project/BatchNorm", "trainable": false, "dtype": "float32", "axis": [3], "momentum": 0.999, "epsilon": 0.001, "center": true, "scale": true, "beta_initializer": {"module": "keras.initializers", "class_name": "Zeros", "config": {}, "registered_name": null}, "gamma_initializer": {"module": "keras.initializers", "class_name": "Ones", "config": {}, "registered_name": null}, "moving_mean_initializer": {"module": "keras.initializers", "class_name": "Zeros", "config": {}, "registered_name": null}, "moving_variance_initializer": {"module": "keras.initializers", "class_name": "Ones", "config": {}, "registered_name": null}, "beta_regularizer": null, "gamma_regularizer": null, "beta_constraint": null, "gamma_constraint": null}, "registered_name": null, "build_config": {"input_shape": [null, 56, 56, 16]}, "name": "expanded_conv/project/BatchNorm", "inbound_nodes": [[["expanded_conv/project", 0, 0, {}]]]}, {"module": "keras.layers", "class_name": "Conv2D", "config": {"name": "expanded_conv_1/expand", "trainable": false, "dtype": "float32", "filters": 72, "kernel_size": [1, 1], "strides": [1, 1], "padding": "same", "data_format": "channels_last", "dilation_rate": [1, 1], "groups": 1, "activation": "linear", "use_bias": false, "kernel_initializer": {"module": "keras.initializers", "class_name": "GlorotUniform", "config": {"seed": null}, "registered_name": null}, "bias_initializer": {"module": "keras.initializers", "class_name": "Zeros", "config": {}, "registered_name": null}, "kernel_regularizer": null, "bias_regularizer": null, "activity_regularizer": null, "kernel_constraint": null, "bias_constraint": null}, "registered_name": null, "build_config": {"input_shape": [null, 56, 56, 16]}, "name": "expanded_conv_1/expand", "inbound_nodes": [[["expanded_conv/project/BatchNorm", 0, 0, {}]]]}, {"module": "keras.layers", "class_name": "BatchNormalization", "config": {"name": "expanded_conv_1/expand/BatchNorm", "trainable": false, "dtype": "float32", "axis": [3], "momentum": 0.999, "epsilon": 0.001, "center": true, "scale": true, "beta_initializer": {"module": "keras.initializers", "class_name": "Zeros", "config": {}, "registered_name": null}, "gamma_initializer": {"module": "keras.initializers", "class_name": "Ones", "config": {}, "registered_name": null}, "moving_mean_initializer": {"module": "keras.initializers", "class_name": "Zeros", "config": {}, "registered_name": null}, "moving_variance_initializer": {"module": "keras.initializers", "class_name": "Ones", "config": {}, "registered_name": null}, "beta_regularizer": null, "gamma_regularizer": null, "beta_constraint": null, "gamma_constraint": null}, "registered_name": null, "build_config": {"input_shape": [null, 56, 56, 72]}, "name": "expanded_conv_1/expand/BatchNorm", "inbound_nodes": [[["expanded_conv_1/expand", 0, 0, {}]]]}, {"module": "keras.layers", "class_name": "ReLU", "config": {"name": "re_lu_35", "trainable": false, "dtype": "float32", "max_value": null, "negative_slope": 0.0, "threshold": 0.0}, "registered_name": null, "build_config": {"input_shape": [null, 56, 56, 72]}, "name": "re_lu_35", "inbound_nodes": [[["expanded_conv_1/expand/BatchNorm", 0, 0, {}]]]}, {"module": "keras.layers", "class_name": "ZeroPadding2D", "config": {"name": "expanded_conv_1/depthwise/pad", "trainable": false, "dtype": "float32", "padding": [[0, 1], [0, 1]], "data_format": "channels_last"}, "registered_name": null, "build_config": {"input_shape": [null, 56, 56, 72]}, "name": "expanded_conv_1/depthwise/pad", "inbound_nodes": [[["re_lu_35", 0, 0, {}]]]}, {"module": "keras.layers", "class_name": "DepthwiseConv2D", "config": {"name": "expanded_conv_1/depthwise", "trainable": false, "dtype": "float32", "kernel_size": [3, 3], "strides": [2, 2], "padding": "valid", "data_format": "channels_last", "dilation_rate": [1, 1], "groups": 1, "activation": "linear", "use_bias": false, "bias_initializer": {"module": "keras.initializers", "class_name": "Zeros", "config": {}, "registered_name": null}, "bias_regularizer": null, "activity_regularizer": null, "bias_constraint": null, "depth_multiplier": 1, "depthwise_initializer": {"module": "keras.initializers", "class_name": "GlorotUniform", "config": {"seed": null}, "registered_name": null}, "depthwise_regularizer": null, "depthwise_constraint": null}, "registered_name": null, "build_config": {"input_shape": [null, 57, 57, 72]}, "name": "expanded_conv_1/depthwise", "inbound_nodes": [[["expanded_conv_1/depthwise/pad", 0, 0, {}]]]}, {"module": "keras.layers", "class_name": "BatchNormalization", "config": {"name": "expanded_conv_1/depthwise/BatchNorm", "trainable": false, "dtype": "float32", "axis": [3], "momentum": 0.999, "epsilon": 0.001, "center": true, "scale": true, "beta_initializer": {"module": "keras.initializers", "class_name": "Zeros", "config": {}, "registered_name": null}, "gamma_initializer": {"module": "keras.initializers", "class_name": "Ones", "config": {}, "registered_name": null}, "moving_mean_initializer": {"module": "keras.initializers", "class_name": "Zeros", "config": {}, "registered_name": null}, "moving_variance_initializer": {"module": "keras.initializers", "class_name": "Ones", "config": {}, "registered_name": null}, "beta_regularizer": null, "gamma_regularizer": null, "beta_constraint": null, "gamma_constraint": null}, "registered_name": null, "build_config": {"input_shape": [null, 28, 28, 72]}, "name": "expanded_conv_1/depthwise/BatchNorm", "inbound_nodes": [[["expanded_conv_1/depthwise", 0, 0, {}]]]}, {"module": "keras.layers", "class_name": "ReLU", "config": {"name": "re_lu_36", "trainable": false, "dtype": "float32", "max_value": null, "negative_slope": 0.0, "threshold": 0.0}, "registered_name": null, "build_config": {"input_shape": [null, 28, 28, 72]}, "name": "re_lu_36", "inbound_nodes": [[["expanded_conv_1/depthwise/BatchNorm", 0, 0, {}]]]}, {"module": "keras.layers", "class_name": "Conv2D", "config": {"name": "expanded_conv_1/project", "trainable": false, "dtype": "float32", "filters": 24, "kernel_size": [1, 1], "strides": [1, 1], "padding": "same", "data_format": "channels_last", "dilation_rate": [1, 1], "groups": 1, "activation": "linear", "use_bias": false, "kernel_initializer": {"module": "keras.initializers", "class_name": "GlorotUniform", "config": {"seed": null}, "registered_name": null}, "bias_initializer": {"module": "keras.initializers", "class_name": "Zeros", "config": {}, "registered_name": null}, "kernel_regularizer": null, "bias_regularizer": null, "activity_regularizer": null, "kernel_constraint": null, "bias_constraint": null}, "registered_name": null, "build_config": {"input_shape": [null, 28, 28, 72]}, "name": "expanded_conv_1/project", "inbound_nodes": [[["re_lu_36", 0, 0, {}]]]}, {"module": "keras.layers", "class_name": "BatchNormalization", "config": {"name": "expanded_conv_1/project/BatchNorm", "trainable": false, "dtype": "float32", "axis": [3], "momentum": 0.999, "epsilon": 0.001, "center": true, "scale": true, "beta_initializer": {"module": "keras.initializers", "class_name": "Zeros", "config": {}, "registered_name": null}, "gamma_initializer": {"module": "keras.initializers", "class_name": "Ones", "config": {}, "registered_name": null}, "moving_mean_initializer": {"module": "keras.initializers", "class_name": "Zeros", "config": {}, "registered_name": null}, "moving_variance_initializer": {"module": "keras.initializers", "class_name": "Ones", "config": {}, "registered_name": null}, "beta_regularizer": null, "gamma_regularizer": null, "beta_constraint": null, "gamma_constraint": null}, "registered_name": null, "build_config": {"input_shape": [null, 28, 28, 24]}, "name": "expanded_conv_1/project/BatchNorm", "inbound_nodes": [[["expanded_conv_1/project", 0, 0, {}]]]}, {"module": "keras.layers", "class_name": "Conv2D", "config": {"name": "expanded_conv_2/expand", "trainable": false, "dtype": "float32", "filters": 88, "kernel_size": [1, 1], "strides": [1, 1], "padding": "same", "data_format": "channels_last", "dilation_rate": [1, 1], "groups": 1, "activation": "linear", "use_bias": false, "kernel_initializer": {"module": "keras.initializers", "class_name": "GlorotUniform", "config": {"seed": null}, "registered_name": null}, "bias_initializer": {"module": "keras.initializers", "class_name": "Zeros", "config": {}, "registered_name": null}, "kernel_regularizer": null, "bias_regularizer": null, "activity_regularizer": null, "kernel_constraint": null, "bias_constraint": null}, "registered_name": null, "build_config": {"input_shape": [null, 28, 28, 24]}, "name": "expanded_conv_2/expand", "inbound_nodes": [[["expanded_conv_1/project/BatchNorm", 0, 0, {}]]]}, {"module": "keras.layers", "class_name": "BatchNormalization", "config": {"name": "expanded_conv_2/expand/BatchNorm", "trainable": false, "dtype": "float32", "axis": [3], "momentum": 0.999, "epsilon": 0.001, "center": true, "scale": true, "beta_initializer": {"module": "keras.initializers", "class_name": "Zeros", "config": {}, "registered_name": null}, "gamma_initializer": {"module": "keras.initializers", "class_name": "Ones", "config": {}, "registered_name": null}, "moving_mean_initializer": {"module": "keras.initializers", "class_name": "Zeros", "config": {}, "registered_name": null}, "moving_variance_initializer": {"module": "keras.initializers", "class_name": "Ones", "config": {}, "registered_name": null}, "beta_regularizer": null, "gamma_regularizer": null, "beta_constraint": null, "gamma_constraint": null}, "registered_name": null, "build_config": {"input_shape": [null, 28, 28, 88]}, "name": "expanded_conv_2/expand/BatchNorm", "inbound_nodes": [[["expanded_conv_2/expand", 0, 0, {}]]]}, {"module": "keras.layers", "class_name": "ReLU", "config": {"name": "re_lu_37", "trainable": false, "dtype": "float32", "max_value": null, "negative_slope": 0.0, "threshold": 0.0}, "registered_name": null, "build_config": {"input_shape": [null, 28, 28, 88]}, "name": "re_lu_37", "inbound_nodes": [[["expanded_conv_2/expand/BatchNorm", 0, 0, {}]]]}, {"module": "keras.layers", "class_name": "DepthwiseConv2D", "config": {"name": "expanded_conv_2/depthwise", "trainable": false, "dtype": "float32", "kernel_size": [3, 3], "strides": [1, 1], "padding": "same", "data_format": "channels_last", "dilation_rate": [1, 1], "groups": 1, "activation": "linear", "use_bias": false, "bias_initializer": {"module": "keras.initializers", "class_name": "Zeros", "config": {}, "registered_name": null}, "bias_regularizer": null, "activity_regularizer": null, "bias_constraint": null, "depth_multiplier": 1, "depthwise_initializer": {"module": "keras.initializers", "class_name": "GlorotUniform", "config": {"seed": null}, "registered_name": null}, "depthwise_regularizer": null, "depthwise_constraint": null}, "registered_name": null, "build_config": {"input_shape": [null, 28, 28, 88]}, "name": "expanded_conv_2/depthwise", "inbound_nodes": [[["re_lu_37", 0, 0, {}]]]}, {"module": "keras.layers", "class_name": "BatchNormalization", "config": {"name": "expanded_conv_2/depthwise/BatchNorm", "trainable": false, "dtype": "float32", "axis": [3], "momentum": 0.999, "epsilon": 0.001, "center": true, "scale": true, "beta_initializer": {"module": "keras.initializers", "class_name": "Zeros", "config": {}, "registered_name": null}, "gamma_initializer": {"module": "keras.initializers", "class_name": "Ones", "config": {}, "registered_name": null}, "moving_mean_initializer": {"module": "keras.initializers", "class_name": "Zeros", "config": {}, "registered_name": null}, "moving_variance_initializer": {"module": "keras.initializers", "class_name": "Ones", "config": {}, "registered_name": null}, "beta_regularizer": null, "gamma_regularizer": null, "beta_constraint": null, "gamma_constraint": null}, "registered_name": null, "build_config": {"input_shape": [null, 28, 28, 88]}, "name": "expanded_conv_2/depthwise/BatchNorm", "inbound_nodes": [[["expanded_conv_2/depthwise", 0, 0, {}]]]}, {"module": "keras.layers", "class_name": "ReLU", "config": {"name": "re_lu_38", "trainable": false, "dtype": "float32", "max_value": null, "negative_slope": 0.0, "threshold": 0.0}, "registered_name": null, "build_config": {"input_shape": [null, 28, 28, 88]}, "name": "re_lu_38", "inbound_nodes": [[["expanded_conv_2/depthwise/BatchNorm", 0, 0, {}]]]}, {"module": "keras.layers", "class_name": "Conv2D", "config": {"name": "expanded_conv_2/project", "trainable": false, "dtype": "float32", "filters": 24, "kernel_size": [1, 1], "strides": [1, 1], "padding": "same", "data_format": "channels_last", "dilation_rate": [1, 1], "groups": 1, "activation": "linear", "use_bias": false, "kernel_initializer": {"module": "keras.initializers", "class_name": "GlorotUniform", "config": {"seed": null}, "registered_name": null}, "bias_initializer": {"module": "keras.initializers", "class_name": "Zeros", "config": {}, "registered_name": null}, "kernel_regularizer": null, "bias_regularizer": null, "activity_regularizer": null, "kernel_constraint": null, "bias_constraint": null}, "registered_name": null, "build_config": {"input_shape": [null, 28, 28, 88]}, "name": "expanded_conv_2/project", "inbound_nodes": [[["re_lu_38", 0, 0, {}]]]}, {"module": "keras.layers", "class_name": "BatchNormalization", "config": {"name": "expanded_conv_2/project/BatchNorm", "trainable": false, "dtype": "float32", "axis": [3], "momentum": 0.999, "epsilon": 0.001, "center": true, "scale": true, "beta_initializer": {"module": "keras.initializers", "class_name": "Zeros", "config": {}, "registered_name": null}, "gamma_initializer": {"module": "keras.initializers", "class_name": "Ones", "config": {}, "registered_name": null}, "moving_mean_initializer": {"module": "keras.initializers", "class_name": "Zeros", "config": {}, "registered_name": null}, "moving_variance_initializer": {"module": "keras.initializers", "class_name": "Ones", "config": {}, "registered_name": null}, "beta_regularizer": null, "gamma_regularizer": null, "beta_constraint": null, "gamma_constraint": null}, "registered_name": null, "build_config": {"input_shape": [null, 28, 28, 24]}, "name": "expanded_conv_2/project/BatchNorm", "inbound_nodes": [[["expanded_conv_2/project", 0, 0, {}]]]}, {"module": "keras.layers", "class_name": "Add", "config": {"name": "expanded_conv_2/Add", "trainable": false, "dtype": "float32"}, "registered_name": null, "build_config": {"input_shape": [[null, 28, 28, 24], [null, 28, 28, 24]]}, "name": "expanded_conv_2/Add", "inbound_nodes": [[["expanded_conv_1/project/BatchNorm", 0, 0, {}], ["expanded_conv_2/project/BatchNorm", 0, 0, {}]]]}, {"module": "keras.layers", "class_name": "Conv2D", "config": {"name": "expanded_conv_3/expand", "trainable": false, "dtype": "float32", "filters": 96, "kernel_size": [1, 1], "strides": [1, 1], "padding": "same", "data_format": "channels_last", "dilation_rate": [1, 1], "groups": 1, "activation": "linear", "use_bias": false, "kernel_initializer": {"module": "keras.initializers", "class_name": "GlorotUniform", "config": {"seed": null}, "registered_name": null}, "bias_initializer": {"module": "keras.initializers", "class_name": "Zeros", "config": {}, "registered_name": null}, "kernel_regularizer": null, "bias_regularizer": null, "activity_regularizer": null, "kernel_constraint": null, "bias_constraint": null}, "registered_name": null, "build_config": {"input_shape": [null, 28, 28, 24]}, "name": "expanded_conv_3/expand", "inbound_nodes": [[["expanded_conv_2/Add", 0, 0, {}]]]}, {"module": "keras.layers", "class_name": "BatchNormalization", "config": {"name": "expanded_conv_3/expand/BatchNorm", "trainable": false, "dtype": "float32", "axis": [3], "momentum": 0.999, "epsilon": 0.001, "center": true, "scale": true, "beta_initializer": {"module": "keras.initializers", "class_name": "Zeros", "config": {}, "registered_name": null}, "gamma_initializer": {"module": "keras.initializers", "class_name": "Ones", "config": {}, "registered_name": null}, "moving_mean_initializer": {"module": "keras.initializers", "class_name": "Zeros", "config": {}, "registered_name": null}, "moving_variance_initializer": {"module": "keras.initializers", "class_name": "Ones", "config": {}, "registered_name": null}, "beta_regularizer": null, "gamma_regularizer": null, "beta_constraint": null, "gamma_constraint": null}, "registered_name": null, "build_config": {"input_shape": [null, 28, 28, 96]}, "name": "expanded_conv_3/expand/BatchNorm", "inbound_nodes": [[["expanded_conv_3/expand", 0, 0, {}]]]}, {"module": "keras.src.layers.core.tf_op_layer", "class_name": "TFOpLambda", "config": {"name": "tf.__operators__.add_29", "trainable": false, "dtype": "float32", "function": "__operators__.add"}, "registered_name": "TFOpLambda", "build_config": {"input_shape": [null, 28, 28, 96]}, "name": "tf.__operators__.add_29", "inbound_nodes": [["expanded_conv_3/expand/BatchNorm", 0, 0, {"y": 3.0, "name": null}]]}, {"module": "keras.layers", "class_name": "ReLU", "config": {"name": "re_lu_39", "trainable": false, "dtype": "float32", "max_value": 6.0, "negative_slope": 0.0, "threshold": 0.0}, "registered_name": null, "build_config": {"input_shape": [null, 28, 28, 96]}, "name": "re_lu_39", "inbound_nodes": [[["tf.__operators__.add_29", 0, 0, {}]]]}, {"module": "keras.src.layers.core.tf_op_layer", "class_name": "TFOpLambda", "config": {"name": "tf.math.multiply_29", "trainable": false, "dtype": "float32", "function": "math.multiply"}, "registered_name": "TFOpLambda", "build_config": {"input_shape": [null, 28, 28, 96]}, "name": "tf.math.multiply_29", "inbound_nodes": [["re_lu_39", 0, 0, {"y": 0.16666666666666666, "name": null}]]}, {"module": "keras.layers", "class_name": "Multiply", "config": {"name": "multiply_19", "trainable": false, "dtype": "float32"}, "registered_name": null, "build_config": {"input_shape": [[null, 28, 28, 96], [null, 28, 28, 96]]}, "name": "multiply_19", "inbound_nodes": [[["expanded_conv_3/expand/BatchNorm", 0, 0, {}], ["tf.math.multiply_29", 0, 0, {}]]]}, {"module": "keras.layers", "class_name": "ZeroPadding2D", "config": {"name": "expanded_conv_3/depthwise/pad", "trainable": false, "dtype": "float32", "padding": [[1, 2], [1, 2]], "data_format": "channels_last"}, "registered_name": null, "build_config": {"input_shape": [null, 28, 28, 96]}, "name": "expanded_conv_3/depthwise/pad", "inbound_nodes": [[["multiply_19", 0, 0, {}]]]}, {"module": "keras.layers", "class_name": "DepthwiseConv2D", "config": {"name": "expanded_conv_3/depthwise", "trainable": false, "dtype": "float32", "kernel_size": [5, 5], "strides": [2, 2], "padding": "valid", "data_format": "channels_last", "dilation_rate": [1, 1], "groups": 1, "activation": "linear", "use_bias": false, "bias_initializer": {"module": "keras.initializers", "class_name": "Zeros", "config": {}, "registered_name": null}, "bias_regularizer": null, "activity_regularizer": null, "bias_constraint": null, "depth_multiplier": 1, "depthwise_initializer": {"module": "keras.initializers", "class_name": "GlorotUniform", "config": {"seed": null}, "registered_name": null}, "depthwise_regularizer": null, "depthwise_constraint": null}, "registered_name": null, "build_config": {"input_shape": [null, 31, 31, 96]}, "name": "expanded_conv_3/depthwise", "inbound_nodes": [[["expanded_conv_3/depthwise/pad", 0, 0, {}]]]}, {"module": "keras.layers", "class_name": "BatchNormalization", "config": {"name": "expanded_conv_3/depthwise/BatchNorm", "trainable": false, "dtype": "float32", "axis": [3], "momentum": 0.999, "epsilon": 0.001, "center": true, "scale": true, "beta_initializer": {"module": "keras.initializers", "class_name": "Zeros", "config": {}, "registered_name": null}, "gamma_initializer": {"module": "keras.initializers", "class_name": "Ones", "config": {}, "registered_name": null}, "moving_mean_initializer": {"module": "keras.initializers", "class_name": "Zeros", "config": {}, "registered_name": null}, "moving_variance_initializer": {"module": "keras.initializers", "class_name": "Ones", "config": {}, "registered_name": null}, "beta_regularizer": null, "gamma_regularizer": null, "beta_constraint": null, "gamma_constraint": null}, "registered_name": null, "build_config": {"input_shape": [null, 14, 14, 96]}, "name": "expanded_conv_3/depthwise/BatchNorm", "inbound_nodes": [[["expanded_conv_3/depthwise", 0, 0, {}]]]}, {"module": "keras.src.layers.core.tf_op_layer", "class_name": "TFOpLambda", "config": {"name": "tf.__operators__.add_30", "trainable": false, "dtype": "float32", "function": "__operators__.add"}, "registered_name": "TFOpLambda", "build_config": {"input_shape": [null, 14, 14, 96]}, "name": "tf.__operators__.add_30", "inbound_nodes": [["expanded_conv_3/depthwise/BatchNorm", 0, 0, {"y": 3.0, "name": null}]]}, {"module": "keras.layers", "class_name": "ReLU", "config": {"name": "re_lu_40", "trainable": false, "dtype": "float32", "max_value": 6.0, "negative_slope": 0.0, "threshold": 0.0}, "registered_name": null, "build_config": {"input_shape": [null, 14, 14, 96]}, "name": "re_lu_40", "inbound_nodes": [[["tf.__operators__.add_30", 0, 0, {}]]]}, {"module": "keras.src.layers.core.tf_op_layer", "class_name": "TFOpLambda", "config": {"name": "tf.math.multiply_30", "trainable": false, "dtype": "float32", "function": "math.multiply"}, "registered_name": "TFOpLambda", "build_config": {"input_shape": [null, 14, 14, 96]}, "name": "tf.math.multiply_30", "inbound_nodes": [["re_lu_40", 0, 0, {"y": 0.16666666666666666, "name": null}]]}, {"module": "keras.layers", "class_name": "Multiply", "config": {"name": "multiply_20", "trainable": false, "dtype": "float32"}, "registered_name": null, "build_config": {"input_shape": [[null, 14, 14, 96], [null, 14, 14, 96]]}, "name": "multiply_20", "inbound_nodes": [[["expanded_conv_3/depthwise/BatchNorm", 0, 0, {}], ["tf.math.multiply_30", 0, 0, {}]]]}, {"module": "keras.layers", "class_name": "GlobalAveragePooling2D", "config": {"name": "expanded_conv_3/squeeze_excite/AvgPool", "trainable": false, "dtype": "float32", "data_format": "channels_last", "keepdims": true}, "registered_name": null, "build_config": {"input_shape": [null, 14, 14, 96]}, "name": "expanded_conv_3/squeeze_excite/AvgPool", "inbound_nodes": [[["multiply_20", 0, 0, {}]]]}, {"module": "keras.layers", "class_name": "Conv2D", "config": {"name": "expanded_conv_3/squeeze_excite/Conv", "trainable": false, "dtype": "float32", "filters": 24, "kernel_size": [1, 1], "strides": [1, 1], "padding": "same", "data_format": "channels_last", "dilation_rate": [1, 1], "groups": 1, "activation": "linear", "use_bias": true, "kernel_initializer": {"module": "keras.initializers", "class_name": "GlorotUniform", "config": {"seed": null}, "registered_name": null}, "bias_initializer": {"module": "keras.initializers", "class_name": "Zeros", "config": {}, "registered_name": null}, "kernel_regularizer": null, "bias_regularizer": null, "activity_regularizer": null, "kernel_constraint": null, "bias_constraint": null}, "registered_name": null, "build_config": {"input_shape": [null, 1, 1, 96]}, "name": "expanded_conv_3/squeeze_excite/Conv", "inbound_nodes": [[["expanded_conv_3/squeeze_excite/AvgPool", 0, 0, {}]]]}, {"module": "keras.layers", "class_name": "ReLU", "config": {"name": "expanded_conv_3/squeeze_excite/Relu", "trainable": false, "dtype": "float32", "max_value": null, "negative_slope": 0.0, "threshold": 0.0}, "registered_name": null, "build_config": {"input_shape": [null, 1, 1, 24]}, "name": "expanded_conv_3/squeeze_excite/Relu", "inbound_nodes": [[["expanded_conv_3/squeeze_excite/Conv", 0, 0, {}]]]}, {"module": "keras.layers", "class_name": "Conv2D", "config": {"name": "expanded_conv_3/squeeze_excite/Conv_1", "trainable": false, "dtype": "float32", "filters": 96, "kernel_size": [1, 1], "strides": [1, 1], "padding": "same", "data_format": "channels_last", "dilation_rate": [1, 1], "groups": 1, "activation": "linear", "use_bias": true, "kernel_initializer": {"module": "keras.initializers", "class_name": "GlorotUniform", "config": {"seed": null}, "registered_name": null}, "bias_initializer": {"module": "keras.initializers", "class_name": "Zeros", "config": {}, "registered_name": null}, "kernel_regularizer": null, "bias_regularizer": null, "activity_regularizer": null, "kernel_constraint": null, "bias_constraint": null}, "registered_name": null, "build_config": {"input_shape": [null, 1, 1, 24]}, "name": "expanded_conv_3/squeeze_excite/Conv_1", "inbound_nodes": [[["expanded_conv_3/squeeze_excite/Relu", 0, 0, {}]]]}, {"module": "keras.src.layers.core.tf_op_layer", "class_name": "TFOpLambda", "config": {"name": "tf.__operators__.add_31", "trainable": false, "dtype": "float32", "function": "__operators__.add"}, "registered_name": "TFOpLambda", "build_config": {"input_shape": [null, 1, 1, 96]}, "name": "tf.__operators__.add_31", "inbound_nodes": [["expanded_conv_3/squeeze_excite/Conv_1", 0, 0, {"y": 3.0, "name": null}]]}, {"module": "keras.layers", "class_name": "ReLU", "config": {"name": "re_lu_41", "trainable": false, "dtype": "float32", "max_value": 6.0, "negative_slope": 0.0, "threshold": 0.0}, "registered_name": null, "build_config": {"input_shape": [null, 1, 1, 96]}, "name": "re_lu_41", "inbound_nodes": [[["tf.__operators__.add_31", 0, 0, {}]]]}, {"module": "keras.src.layers.core.tf_op_layer", "class_name": "TFOpLambda", "config": {"name": "tf.math.multiply_31", "trainable": false, "dtype": "float32", "function": "math.multiply"}, "registered_name": "TFOpLambda", "build_config": {"input_shape": [null, 1, 1, 96]}, "name": "tf.math.multiply_31", "inbound_nodes": [["re_lu_41", 0, 0, {"y": 0.16666666666666666, "name": null}]]}, {"module": "keras.layers", "class_name": "Multiply", "config": {"name": "expanded_conv_3/squeeze_excite/Mul", "trainable": false, "dtype": "float32"}, "registered_name": null, "build_config": {"input_shape": [[null, 14, 14, 96], [null, 1, 1, 96]]}, "name": "expanded_conv_3/squeeze_excite/Mul", "inbound_nodes": [[["multiply_20", 0, 0, {}], ["tf.math.multiply_31", 0, 0, {}]]]}, {"module": "keras.layers", "class_name": "Conv2D", "config": {"name": "expanded_conv_3/project", "trainable": false, "dtype": "float32", "filters": 40, "kernel_size": [1, 1], "strides": [1, 1], "padding": "same", "data_format": "channels_last", "dilation_rate": [1, 1], "groups": 1, "activation": "linear", "use_bias": false, "kernel_initializer": {"module": "keras.initializers", "class_name": "GlorotUniform", "config": {"seed": null}, "registered_name": null}, "bias_initializer": {"module": "keras.initializers", "class_name": "Zeros", "config": {}, "registered_name": null}, "kernel_regularizer": null, "bias_regularizer": null, "activity_regularizer": null, "kernel_constraint": null, "bias_constraint": null}, "registered_name": null, "build_config": {"input_shape": [null, 14, 14, 96]}, "name": "expanded_conv_3/project", "inbound_nodes": [[["expanded_conv_3/squeeze_excite/Mul", 0, 0, {}]]]}, {"module": "keras.layers", "class_name": "BatchNormalization", "config": {"name": "expanded_conv_3/project/BatchNorm", "trainable": false, "dtype": "float32", "axis": [3], "momentum": 0.999, "epsilon": 0.001, "center": true, "scale": true, "beta_initializer": {"module": "keras.initializers", "class_name": "Zeros", "config": {}, "registered_name": null}, "gamma_initializer": {"module": "keras.initializers", "class_name": "Ones", "config": {}, "registered_name": null}, "moving_mean_initializer": {"module": "keras.initializers", "class_name": "Zeros", "config": {}, "registered_name": null}, "moving_variance_initializer": {"module": "keras.initializers", "class_name": "Ones", "config": {}, "registered_name": null}, "beta_regularizer": null, "gamma_regularizer": null, "beta_constraint": null, "gamma_constraint": null}, "registered_name": null, "build_config": {"input_shape": [null, 14, 14, 40]}, "name": "expanded_conv_3/project/BatchNorm", "inbound_nodes": [[["expanded_conv_3/project", 0, 0, {}]]]}, {"module": "keras.layers", "class_name": "Conv2D", "config": {"name": "expanded_conv_4/expand", "trainable": false, "dtype": "float32", "filters": 240, "kernel_size": [1, 1], "strides": [1, 1], "padding": "same", "data_format": "channels_last", "dilation_rate": [1, 1], "groups": 1, "activation": "linear", "use_bias": false, "kernel_initializer": {"module": "keras.initializers", "class_name": "GlorotUniform", "config": {"seed": null}, "registered_name": null}, "bias_initializer": {"module": "keras.initializers", "class_name": "Zeros", "config": {}, "registered_name": null}, "kernel_regularizer": null, "bias_regularizer": null, "activity_regularizer": null, "kernel_constraint": null, "bias_constraint": null}, "registered_name": null, "build_config": {"input_shape": [null, 14, 14, 40]}, "name": "expanded_conv_4/expand", "inbound_nodes": [[["expanded_conv_3/project/BatchNorm", 0, 0, {}]]]}, {"module": "keras.layers", "class_name": "BatchNormalization", "config": {"name": "expanded_conv_4/expand/BatchNorm", "trainable": false, "dtype": "float32", "axis": [3], "momentum": 0.999, "epsilon": 0.001, "center": true, "scale": true, "beta_initializer": {"module": "keras.initializers", "class_name": "Zeros", "config": {}, "registered_name": null}, "gamma_initializer": {"module": "keras.initializers", "class_name": "Ones", "config": {}, "registered_name": null}, "moving_mean_initializer": {"module": "keras.initializers", "class_name": "Zeros", "config": {}, "registered_name": null}, "moving_variance_initializer": {"module": "keras.initializers", "class_name": "Ones", "config": {}, "registered_name": null}, "beta_regularizer": null, "gamma_regularizer": null, "beta_constraint": null, "gamma_constraint": null}, "registered_name": null, "build_config": {"input_shape": [null, 14, 14, 240]}, "name": "expanded_conv_4/expand/BatchNorm", "inbound_nodes": [[["expanded_conv_4/expand", 0, 0, {}]]]}, {"module": "keras.src.layers.core.tf_op_layer", "class_name": "TFOpLambda", "config": {"name": "tf.__operators__.add_32", "trainable": false, "dtype": "float32", "function": "__operators__.add"}, "registered_name": "TFOpLambda", "build_config": {"input_shape": [null, 14, 14, 240]}, "name": "tf.__operators__.add_32", "inbound_nodes": [["expanded_conv_4/expand/BatchNorm", 0, 0, {"y": 3.0, "name": null}]]}, {"module": "keras.layers", "class_name": "ReLU", "config": {"name": "re_lu_42", "trainable": false, "dtype": "float32", "max_value": 6.0, "negative_slope": 0.0, "threshold": 0.0}, "registered_name": null, "build_config": {"input_shape": [null, 14, 14, 240]}, "name": "re_lu_42", "inbound_nodes": [[["tf.__operators__.add_32", 0, 0, {}]]]}, {"module": "keras.src.layers.core.tf_op_layer", "class_name": "TFOpLambda", "config": {"name": "tf.math.multiply_32", "trainable": false, "dtype": "float32", "function": "math.multiply"}, "registered_name": "TFOpLambda", "build_config": {"input_shape": [null, 14, 14, 240]}, "name": "tf.math.multiply_32", "inbound_nodes": [["re_lu_42", 0, 0, {"y": 0.16666666666666666, "name": null}]]}, {"module": "keras.layers", "class_name": "Multiply", "config": {"name": "multiply_21", "trainable": false, "dtype": "float32"}, "registered_name": null, "build_config": {"input_shape": [[null, 14, 14, 240], [null, 14, 14, 240]]}, "name": "multiply_21", "inbound_nodes": [[["expanded_conv_4/expand/BatchNorm", 0, 0, {}], ["tf.math.multiply_32", 0, 0, {}]]]}, {"module": "keras.layers", "class_name": "DepthwiseConv2D", "config": {"name": "expanded_conv_4/depthwise", "trainable": false, "dtype": "float32", "kernel_size": [5, 5], "strides": [1, 1], "padding": "same", "data_format": "channels_last", "dilation_rate": [1, 1], "groups": 1, "activation": "linear", "use_bias": false, "bias_initializer": {"module": "keras.initializers", "class_name": "Zeros", "config": {}, "registered_name": null}, "bias_regularizer": null, "activity_regularizer": null, "bias_constraint": null, "depth_multiplier": 1, "depthwise_initializer": {"module": "keras.initializers", "class_name": "GlorotUniform", "config": {"seed": null}, "registered_name": null}, "depthwise_regularizer": null, "depthwise_constraint": null}, "registered_name": null, "build_config": {"input_shape": [null, 14, 14, 240]}, "name": "expanded_conv_4/depthwise", "inbound_nodes": [[["multiply_21", 0, 0, {}]]]}, {"module": "keras.layers", "class_name": "BatchNormalization", "config": {"name": "expanded_conv_4/depthwise/BatchNorm", "trainable": false, "dtype": "float32", "axis": [3], "momentum": 0.999, "epsilon": 0.001, "center": true, "scale": true, "beta_initializer": {"module": "keras.initializers", "class_name": "Zeros", "config": {}, "registered_name": null}, "gamma_initializer": {"module": "keras.initializers", "class_name": "Ones", "config": {}, "registered_name": null}, "moving_mean_initializer": {"module": "keras.initializers", "class_name": "Zeros", "config": {}, "registered_name": null}, "moving_variance_initializer": {"module": "keras.initializers", "class_name": "Ones", "config": {}, "registered_name": null}, "beta_regularizer": null, "gamma_regularizer": null, "beta_constraint": null, "gamma_constraint": null}, "registered_name": null, "build_config": {"input_shape": [null, 14, 14, 240]}, "name": "expanded_conv_4/depthwise/BatchNorm", "inbound_nodes": [[["expanded_conv_4/depthwise", 0, 0, {}]]]}, {"module": "keras.src.layers.core.tf_op_layer", "class_name": "TFOpLambda", "config": {"name": "tf.__operators__.add_33", "trainable": false, "dtype": "float32", "function": "__operators__.add"}, "registered_name": "TFOpLambda", "build_config": {"input_shape": [null, 14, 14, 240]}, "name": "tf.__operators__.add_33", "inbound_nodes": [["expanded_conv_4/depthwise/BatchNorm", 0, 0, {"y": 3.0, "name": null}]]}, {"module": "keras.layers", "class_name": "ReLU", "config": {"name": "re_lu_43", "trainable": false, "dtype": "float32", "max_value": 6.0, "negative_slope": 0.0, "threshold": 0.0}, "registered_name": null, "build_config": {"input_shape": [null, 14, 14, 240]}, "name": "re_lu_43", "inbound_nodes": [[["tf.__operators__.add_33", 0, 0, {}]]]}, {"module": "keras.src.layers.core.tf_op_layer", "class_name": "TFOpLambda", "config": {"name": "tf.math.multiply_33", "trainable": false, "dtype": "float32", "function": "math.multiply"}, "registered_name": "TFOpLambda", "build_config": {"input_shape": [null, 14, 14, 240]}, "name": "tf.math.multiply_33", "inbound_nodes": [["re_lu_43", 0, 0, {"y": 0.16666666666666666, "name": null}]]}, {"module": "keras.layers", "class_name": "Multiply", "config": {"name": "multiply_22", "trainable": false, "dtype": "float32"}, "registered_name": null, "build_config": {"input_shape": [[null, 14, 14, 240], [null, 14, 14, 240]]}, "name": "multiply_22", "inbound_nodes": [[["expanded_conv_4/depthwise/BatchNorm", 0, 0, {}], ["tf.math.multiply_33", 0, 0, {}]]]}, {"module": "keras.layers", "class_name": "GlobalAveragePooling2D", "config": {"name": "expanded_conv_4/squeeze_excite/AvgPool", "trainable": false, "dtype": "float32", "data_format": "channels_last", "keepdims": true}, "registered_name": null, "build_config": {"input_shape": [null, 14, 14, 240]}, "name": "expanded_conv_4/squeeze_excite/AvgPool", "inbound_nodes": [[["multiply_22", 0, 0, {}]]]}, {"module": "keras.layers", "class_name": "Conv2D", "config": {"name": "expanded_conv_4/squeeze_excite/Conv", "trainable": false, "dtype": "float32", "filters": 64, "kernel_size": [1, 1], "strides": [1, 1], "padding": "same", "data_format": "channels_last", "dilation_rate": [1, 1], "groups": 1, "activation": "linear", "use_bias": true, "kernel_initializer": {"module": "keras.initializers", "class_name": "GlorotUniform", "config": {"seed": null}, "registered_name": null}, "bias_initializer": {"module": "keras.initializers", "class_name": "Zeros", "config": {}, "registered_name": null}, "kernel_regularizer": null, "bias_regularizer": null, "activity_regularizer": null, "kernel_constraint": null, "bias_constraint": null}, "registered_name": null, "build_config": {"input_shape": [null, 1, 1, 240]}, "name": "expanded_conv_4/squeeze_excite/Conv", "inbound_nodes": [[["expanded_conv_4/squeeze_excite/AvgPool", 0, 0, {}]]]}, {"module": "keras.layers", "class_name": "ReLU", "config": {"name": "expanded_conv_4/squeeze_excite/Relu", "trainable": false, "dtype": "float32", "max_value": null, "negative_slope": 0.0, "threshold": 0.0}, "registered_name": null, "build_config": {"input_shape": [null, 1, 1, 64]}, "name": "expanded_conv_4/squeeze_excite/Relu", "inbound_nodes": [[["expanded_conv_4/squeeze_excite/Conv", 0, 0, {}]]]}, {"module": "keras.layers", "class_name": "Conv2D", "config": {"name": "expanded_conv_4/squeeze_excite/Conv_1", "trainable": false, "dtype": "float32", "filters": 240, "kernel_size": [1, 1], "strides": [1, 1], "padding": "same", "data_format": "channels_last", "dilation_rate": [1, 1], "groups": 1, "activation": "linear", "use_bias": true, "kernel_initializer": {"module": "keras.initializers", "class_name": "GlorotUniform", "config": {"seed": null}, "registered_name": null}, "bias_initializer": {"module": "keras.initializers", "class_name": "Zeros", "config": {}, "registered_name": null}, "kernel_regularizer": null, "bias_regularizer": null, "activity_regularizer": null, "kernel_constraint": null, "bias_constraint": null}, "registered_name": null, "build_config": {"input_shape": [null, 1, 1, 64]}, "name": "expanded_conv_4/squeeze_excite/Conv_1", "inbound_nodes": [[["expanded_conv_4/squeeze_excite/Relu", 0, 0, {}]]]}, {"module": "keras.src.layers.core.tf_op_layer", "class_name": "TFOpLambda", "config": {"name": "tf.__operators__.add_34", "trainable": false, "dtype": "float32", "function": "__operators__.add"}, "registered_name": "TFOpLambda", "build_config": {"input_shape": [null, 1, 1, 240]}, "name": "tf.__operators__.add_34", "inbound_nodes": [["expanded_conv_4/squeeze_excite/Conv_1", 0, 0, {"y": 3.0, "name": null}]]}, {"module": "keras.layers", "class_name": "ReLU", "config": {"name": "re_lu_44", "trainable": false, "dtype": "float32", "max_value": 6.0, "negative_slope": 0.0, "threshold": 0.0}, "registered_name": null, "build_config": {"input_shape": [null, 1, 1, 240]}, "name": "re_lu_44", "inbound_nodes": [[["tf.__operators__.add_34", 0, 0, {}]]]}, {"module": "keras.src.layers.core.tf_op_layer", "class_name": "TFOpLambda", "config": {"name": "tf.math.multiply_34", "trainable": false, "dtype": "float32", "function": "math.multiply"}, "registered_name": "TFOpLambda", "build_config": {"input_shape": [null, 1, 1, 240]}, "name": "tf.math.multiply_34", "inbound_nodes": [["re_lu_44", 0, 0, {"y": 0.16666666666666666, "name": null}]]}, {"module": "keras.layers", "class_name": "Multiply", "config": {"name": "expanded_conv_4/squeeze_excite/Mul", "trainable": false, "dtype": "float32"}, "registered_name": null, "build_config": {"input_shape": [[null, 14, 14, 240], [null, 1, 1, 240]]}, "name": "expanded_conv_4/squeeze_excite/Mul", "inbound_nodes": [[["multiply_22", 0, 0, {}], ["tf.math.multiply_34", 0, 0, {}]]]}, {"module": "keras.layers", "class_name": "Conv2D", "config": {"name": "expanded_conv_4/project", "trainable": false, "dtype": "float32", "filters": 40, "kernel_size": [1, 1], "strides": [1, 1], "padding": "same", "data_format": "channels_last", "dilation_rate": [1, 1], "groups": 1, "activation": "linear", "use_bias": false, "kernel_initializer": {"module": "keras.initializers", "class_name": "GlorotUniform", "config": {"seed": null}, "registered_name": null}, "bias_initializer": {"module": "keras.initializers", "class_name": "Zeros", "config": {}, "registered_name": null}, "kernel_regularizer": null, "bias_regularizer": null, "activity_regularizer": null, "kernel_constraint": null, "bias_constraint": null}, "registered_name": null, "build_config": {"input_shape": [null, 14, 14, 240]}, "name": "expanded_conv_4/project", "inbound_nodes": [[["expanded_conv_4/squeeze_excite/Mul", 0, 0, {}]]]}, {"module": "keras.layers", "class_name": "BatchNormalization", "config": {"name": "expanded_conv_4/project/BatchNorm", "trainable": false, "dtype": "float32", "axis": [3], "momentum": 0.999, "epsilon": 0.001, "center": true, "scale": true, "beta_initializer": {"module": "keras.initializers", "class_name": "Zeros", "config": {}, "registered_name": null}, "gamma_initializer": {"module": "keras.initializers", "class_name": "Ones", "config": {}, "registered_name": null}, "moving_mean_initializer": {"module": "keras.initializers", "class_name": "Zeros", "config": {}, "registered_name": null}, "moving_variance_initializer": {"module": "keras.initializers", "class_name": "Ones", "config": {}, "registered_name": null}, "beta_regularizer": null, "gamma_regularizer": null, "beta_constraint": null, "gamma_constraint": null}, "registered_name": null, "build_config": {"input_shape": [null, 14, 14, 40]}, "name": "expanded_conv_4/project/BatchNorm", "inbound_nodes": [[["expanded_conv_4/project", 0, 0, {}]]]}, {"module": "keras.layers", "class_name": "Add", "config": {"name": "expanded_conv_4/Add", "trainable": false, "dtype": "float32"}, "registered_name": null, "build_config": {"input_shape": [[null, 14, 14, 40], [null, 14, 14, 40]]}, "name": "expanded_conv_4/Add", "inbound_nodes": [[["expanded_conv_3/project/BatchNorm", 0, 0, {}], ["expanded_conv_4/project/BatchNorm", 0, 0, {}]]]}, {"module": "keras.layers", "class_name": "Conv2D", "config": {"name": "expanded_conv_5/expand", "trainable": false, "dtype": "float32", "filters": 240, "kernel_size": [1, 1], "strides": [1, 1], "padding": "same", "data_format": "channels_last", "dilation_rate": [1, 1], "groups": 1, "activation": "linear", "use_bias": false, "kernel_initializer": {"module": "keras.initializers", "class_name": "GlorotUniform", "config": {"seed": null}, "registered_name": null}, "bias_initializer": {"module": "keras.initializers", "class_name": "Zeros", "config": {}, "registered_name": null}, "kernel_regularizer": null, "bias_regularizer": null, "activity_regularizer": null, "kernel_constraint": null, "bias_constraint": null}, "registered_name": null, "build_config": {"input_shape": [null, 14, 14, 40]}, "name": "expanded_conv_5/expand", "inbound_nodes": [[["expanded_conv_4/Add", 0, 0, {}]]]}, {"module": "keras.layers", "class_name": "BatchNormalization", "config": {"name": "expanded_conv_5/expand/BatchNorm", "trainable": false, "dtype": "float32", "axis": [3], "momentum": 0.999, "epsilon": 0.001, "center": true, "scale": true, "beta_initializer": {"module": "keras.initializers", "class_name": "Zeros", "config": {}, "registered_name": null}, "gamma_initializer": {"module": "keras.initializers", "class_name": "Ones", "config": {}, "registered_name": null}, "moving_mean_initializer": {"module": "keras.initializers", "class_name": "Zeros", "config": {}, "registered_name": null}, "moving_variance_initializer": {"module": "keras.initializers", "class_name": "Ones", "config": {}, "registered_name": null}, "beta_regularizer": null, "gamma_regularizer": null, "beta_constraint": null, "gamma_constraint": null}, "registered_name": null, "build_config": {"input_shape": [null, 14, 14, 240]}, "name": "expanded_conv_5/expand/BatchNorm", "inbound_nodes": [[["expanded_conv_5/expand", 0, 0, {}]]]}, {"module": "keras.src.layers.core.tf_op_layer", "class_name": "TFOpLambda", "config": {"name": "tf.__operators__.add_35", "trainable": false, "dtype": "float32", "function": "__operators__.add"}, "registered_name": "TFOpLambda", "build_config": {"input_shape": [null, 14, 14, 240]}, "name": "tf.__operators__.add_35", "inbound_nodes": [["expanded_conv_5/expand/BatchNorm", 0, 0, {"y": 3.0, "name": null}]]}, {"module": "keras.layers", "class_name": "ReLU", "config": {"name": "re_lu_45", "trainable": false, "dtype": "float32", "max_value": 6.0, "negative_slope": 0.0, "threshold": 0.0}, "registered_name": null, "build_config": {"input_shape": [null, 14, 14, 240]}, "name": "re_lu_45", "inbound_nodes": [[["tf.__operators__.add_35", 0, 0, {}]]]}, {"module": "keras.src.layers.core.tf_op_layer", "class_name": "TFOpLambda", "config": {"name": "tf.math.multiply_35", "trainable": false, "dtype": "float32", "function": "math.multiply"}, "registered_name": "TFOpLambda", "build_config": {"input_shape": [null, 14, 14, 240]}, "name": "tf.math.multiply_35", "inbound_nodes": [["re_lu_45", 0, 0, {"y": 0.16666666666666666, "name": null}]]}, {"module": "keras.layers", "class_name": "Multiply", "config": {"name": "multiply_23", "trainable": false, "dtype": "float32"}, "registered_name": null, "build_config": {"input_shape": [[null, 14, 14, 240], [null, 14, 14, 240]]}, "name": "multiply_23", "inbound_nodes": [[["expanded_conv_5/expand/BatchNorm", 0, 0, {}], ["tf.math.multiply_35", 0, 0, {}]]]}, {"module": "keras.layers", "class_name": "DepthwiseConv2D", "config": {"name": "expanded_conv_5/depthwise", "trainable": false, "dtype": "float32", "kernel_size": [5, 5], "strides": [1, 1], "padding": "same", "data_format": "channels_last", "dilation_rate": [1, 1], "groups": 1, "activation": "linear", "use_bias": false, "bias_initializer": {"module": "keras.initializers", "class_name": "Zeros", "config": {}, "registered_name": null}, "bias_regularizer": null, "activity_regularizer": null, "bias_constraint": null, "depth_multiplier": 1, "depthwise_initializer": {"module": "keras.initializers", "class_name": "GlorotUniform", "config": {"seed": null}, "registered_name": null}, "depthwise_regularizer": null, "depthwise_constraint": null}, "registered_name": null, "build_config": {"input_shape": [null, 14, 14, 240]}, "name": "expanded_conv_5/depthwise", "inbound_nodes": [[["multiply_23", 0, 0, {}]]]}, {"module": "keras.layers", "class_name": "BatchNormalization", "config": {"name": "expanded_conv_5/depthwise/BatchNorm", "trainable": false, "dtype": "float32", "axis": [3], "momentum": 0.999, "epsilon": 0.001, "center": true, "scale": true, "beta_initializer": {"module": "keras.initializers", "class_name": "Zeros", "config": {}, "registered_name": null}, "gamma_initializer": {"module": "keras.initializers", "class_name": "Ones", "config": {}, "registered_name": null}, "moving_mean_initializer": {"module": "keras.initializers", "class_name": "Zeros", "config": {}, "registered_name": null}, "moving_variance_initializer": {"module": "keras.initializers", "class_name": "Ones", "config": {}, "registered_name": null}, "beta_regularizer": null, "gamma_regularizer": null, "beta_constraint": null, "gamma_constraint": null}, "registered_name": null, "build_config": {"input_shape": [null, 14, 14, 240]}, "name": "expanded_conv_5/depthwise/BatchNorm", "inbound_nodes": [[["expanded_conv_5/depthwise", 0, 0, {}]]]}, {"module": "keras.src.layers.core.tf_op_layer", "class_name": "TFOpLambda", "config": {"name": "tf.__operators__.add_36", "trainable": false, "dtype": "float32", "function": "__operators__.add"}, "registered_name": "TFOpLambda", "build_config": {"input_shape": [null, 14, 14, 240]}, "name": "tf.__operators__.add_36", "inbound_nodes": [["expanded_conv_5/depthwise/BatchNorm", 0, 0, {"y": 3.0, "name": null}]]}, {"module": "keras.layers", "class_name": "ReLU", "config": {"name": "re_lu_46", "trainable": false, "dtype": "float32", "max_value": 6.0, "negative_slope": 0.0, "threshold": 0.0}, "registered_name": null, "build_config": {"input_shape": [null, 14, 14, 240]}, "name": "re_lu_46", "inbound_nodes": [[["tf.__operators__.add_36", 0, 0, {}]]]}, {"module": "keras.src.layers.core.tf_op_layer", "class_name": "TFOpLambda", "config": {"name": "tf.math.multiply_36", "trainable": false, "dtype": "float32", "function": "math.multiply"}, "registered_name": "TFOpLambda", "build_config": {"input_shape": [null, 14, 14, 240]}, "name": "tf.math.multiply_36", "inbound_nodes": [["re_lu_46", 0, 0, {"y": 0.16666666666666666, "name": null}]]}, {"module": "keras.layers", "class_name": "Multiply", "config": {"name": "multiply_24", "trainable": false, "dtype": "float32"}, "registered_name": null, "build_config": {"input_shape": [[null, 14, 14, 240], [null, 14, 14, 240]]}, "name": "multiply_24", "inbound_nodes": [[["expanded_conv_5/depthwise/BatchNorm", 0, 0, {}], ["tf.math.multiply_36", 0, 0, {}]]]}, {"module": "keras.layers", "class_name": "GlobalAveragePooling2D", "config": {"name": "expanded_conv_5/squeeze_excite/AvgPool", "trainable": false, "dtype": "float32", "data_format": "channels_last", "keepdims": true}, "registered_name": null, "build_config": {"input_shape": [null, 14, 14, 240]}, "name": "expanded_conv_5/squeeze_excite/AvgPool", "inbound_nodes": [[["multiply_24", 0, 0, {}]]]}, {"module": "keras.layers", "class_name": "Conv2D", "config": {"name": "expanded_conv_5/squeeze_excite/Conv", "trainable": false, "dtype": "float32", "filters": 64, "kernel_size": [1, 1], "strides": [1, 1], "padding": "same", "data_format": "channels_last", "dilation_rate": [1, 1], "groups": 1, "activation": "linear", "use_bias": true, "kernel_initializer": {"module": "keras.initializers", "class_name": "GlorotUniform", "config": {"seed": null}, "registered_name": null}, "bias_initializer": {"module": "keras.initializers", "class_name": "Zeros", "config": {}, "registered_name": null}, "kernel_regularizer": null, "bias_regularizer": null, "activity_regularizer": null, "kernel_constraint": null, "bias_constraint": null}, "registered_name": null, "build_config": {"input_shape": [null, 1, 1, 240]}, "name": "expanded_conv_5/squeeze_excite/Conv", "inbound_nodes": [[["expanded_conv_5/squeeze_excite/AvgPool", 0, 0, {}]]]}, {"module": "keras.layers", "class_name": "ReLU", "config": {"name": "expanded_conv_5/squeeze_excite/Relu", "trainable": false, "dtype": "float32", "max_value": null, "negative_slope": 0.0, "threshold": 0.0}, "registered_name": null, "build_config": {"input_shape": [null, 1, 1, 64]}, "name": "expanded_conv_5/squeeze_excite/Relu", "inbound_nodes": [[["expanded_conv_5/squeeze_excite/Conv", 0, 0, {}]]]}, {"module": "keras.layers", "class_name": "Conv2D", "config": {"name": "expanded_conv_5/squeeze_excite/Conv_1", "trainable": false, "dtype": "float32", "filters": 240, "kernel_size": [1, 1], "strides": [1, 1], "padding": "same", "data_format": "channels_last", "dilation_rate": [1, 1], "groups": 1, "activation": "linear", "use_bias": true, "kernel_initializer": {"module": "keras.initializers", "class_name": "GlorotUniform", "config": {"seed": null}, "registered_name": null}, "bias_initializer": {"module": "keras.initializers", "class_name": "Zeros", "config": {}, "registered_name": null}, "kernel_regularizer": null, "bias_regularizer": null, "activity_regularizer": null, "kernel_constraint": null, "bias_constraint": null}, "registered_name": null, "build_config": {"input_shape": [null, 1, 1, 64]}, "name": "expanded_conv_5/squeeze_excite/Conv_1", "inbound_nodes": [[["expanded_conv_5/squeeze_excite/Relu", 0, 0, {}]]]}, {"module": "keras.src.layers.core.tf_op_layer", "class_name": "TFOpLambda", "config": {"name": "tf.__operators__.add_37", "trainable": false, "dtype": "float32", "function": "__operators__.add"}, "registered_name": "TFOpLambda", "build_config": {"input_shape": [null, 1, 1, 240]}, "name": "tf.__operators__.add_37", "inbound_nodes": [["expanded_conv_5/squeeze_excite/Conv_1", 0, 0, {"y": 3.0, "name": null}]]}, {"module": "keras.layers", "class_name": "ReLU", "config": {"name": "re_lu_47", "trainable": false, "dtype": "float32", "max_value": 6.0, "negative_slope": 0.0, "threshold": 0.0}, "registered_name": null, "build_config": {"input_shape": [null, 1, 1, 240]}, "name": "re_lu_47", "inbound_nodes": [[["tf.__operators__.add_37", 0, 0, {}]]]}, {"module": "keras.src.layers.core.tf_op_layer", "class_name": "TFOpLambda", "config": {"name": "tf.math.multiply_37", "trainable": false, "dtype": "float32", "function": "math.multiply"}, "registered_name": "TFOpLambda", "build_config": {"input_shape": [null, 1, 1, 240]}, "name": "tf.math.multiply_37", "inbound_nodes": [["re_lu_47", 0, 0, {"y": 0.16666666666666666, "name": null}]]}, {"module": "keras.layers", "class_name": "Multiply", "config": {"name": "expanded_conv_5/squeeze_excite/Mul", "trainable": false, "dtype": "float32"}, "registered_name": null, "build_config": {"input_shape": [[null, 14, 14, 240], [null, 1, 1, 240]]}, "name": "expanded_conv_5/squeeze_excite/Mul", "inbound_nodes": [[["multiply_24", 0, 0, {}], ["tf.math.multiply_37", 0, 0, {}]]]}, {"module": "keras.layers", "class_name": "Conv2D", "config": {"name": "expanded_conv_5/project", "trainable": false, "dtype": "float32", "filters": 40, "kernel_size": [1, 1], "strides": [1, 1], "padding": "same", "data_format": "channels_last", "dilation_rate": [1, 1], "groups": 1, "activation": "linear", "use_bias": false, "kernel_initializer": {"module": "keras.initializers", "class_name": "GlorotUniform", "config": {"seed": null}, "registered_name": null}, "bias_initializer": {"module": "keras.initializers", "class_name": "Zeros", "config": {}, "registered_name": null}, "kernel_regularizer": null, "bias_regularizer": null, "activity_regularizer": null, "kernel_constraint": null, "bias_constraint": null}, "registered_name": null, "build_config": {"input_shape": [null, 14, 14, 240]}, "name": "expanded_conv_5/project", "inbound_nodes": [[["expanded_conv_5/squeeze_excite/Mul", 0, 0, {}]]]}, {"module": "keras.layers", "class_name": "BatchNormalization", "config": {"name": "expanded_conv_5/project/BatchNorm", "trainable": false, "dtype": "float32", "axis": [3], "momentum": 0.999, "epsilon": 0.001, "center": true, "scale": true, "beta_initializer": {"module": "keras.initializers", "class_name": "Zeros", "config": {}, "registered_name": null}, "gamma_initializer": {"module": "keras.initializers", "class_name": "Ones", "config": {}, "registered_name": null}, "moving_mean_initializer": {"module": "keras.initializers", "class_name": "Zeros", "config": {}, "registered_name": null}, "moving_variance_initializer": {"module": "keras.initializers", "class_name": "Ones", "config": {}, "registered_name": null}, "beta_regularizer": null, "gamma_regularizer": null, "beta_constraint": null, "gamma_constraint": null}, "registered_name": null, "build_config": {"input_shape": [null, 14, 14, 40]}, "name": "expanded_conv_5/project/BatchNorm", "inbound_nodes": [[["expanded_conv_5/project", 0, 0, {}]]]}, {"module": "keras.layers", "class_name": "Add", "config": {"name": "expanded_conv_5/Add", "trainable": false, "dtype": "float32"}, "registered_name": null, "build_config": {"input_shape": [[null, 14, 14, 40], [null, 14, 14, 40]]}, "name": "expanded_conv_5/Add", "inbound_nodes": [[["expanded_conv_4/Add", 0, 0, {}], ["expanded_conv_5/project/BatchNorm", 0, 0, {}]]]}, {"module": "keras.layers", "class_name": "Conv2D", "config": {"name": "expanded_conv_6/expand", "trainable": false, "dtype": "float32", "filters": 120, "kernel_size": [1, 1], "strides": [1, 1], "padding": "same", "data_format": "channels_last", "dilation_rate": [1, 1], "groups": 1, "activation": "linear", "use_bias": false, "kernel_initializer": {"module": "keras.initializers", "class_name": "GlorotUniform", "config": {"seed": null}, "registered_name": null}, "bias_initializer": {"module": "keras.initializers", "class_name": "Zeros", "config": {}, "registered_name": null}, "kernel_regularizer": null, "bias_regularizer": null, "activity_regularizer": null, "kernel_constraint": null, "bias_constraint": null}, "registered_name": null, "build_config": {"input_shape": [null, 14, 14, 40]}, "name": "expanded_conv_6/expand", "inbound_nodes": [[["expanded_conv_5/Add", 0, 0, {}]]]}, {"module": "keras.layers", "class_name": "BatchNormalization", "config": {"name": "expanded_conv_6/expand/BatchNorm", "trainable": false, "dtype": "float32", "axis": [3], "momentum": 0.999, "epsilon": 0.001, "center": true, "scale": true, "beta_initializer": {"module": "keras.initializers", "class_name": "Zeros", "config": {}, "registered_name": null}, "gamma_initializer": {"module": "keras.initializers", "class_name": "Ones", "config": {}, "registered_name": null}, "moving_mean_initializer": {"module": "keras.initializers", "class_name": "Zeros", "config": {}, "registered_name": null}, "moving_variance_initializer": {"module": "keras.initializers", "class_name": "Ones", "config": {}, "registered_name": null}, "beta_regularizer": null, "gamma_regularizer": null, "beta_constraint": null, "gamma_constraint": null}, "registered_name": null, "build_config": {"input_shape": [null, 14, 14, 120]}, "name": "expanded_conv_6/expand/BatchNorm", "inbound_nodes": [[["expanded_conv_6/expand", 0, 0, {}]]]}, {"module": "keras.src.layers.core.tf_op_layer", "class_name": "TFOpLambda", "config": {"name": "tf.__operators__.add_38", "trainable": false, "dtype": "float32", "function": "__operators__.add"}, "registered_name": "TFOpLambda", "build_config": {"input_shape": [null, 14, 14, 120]}, "name": "tf.__operators__.add_38", "inbound_nodes": [["expanded_conv_6/expand/BatchNorm", 0, 0, {"y": 3.0, "name": null}]]}, {"module": "keras.layers", "class_name": "ReLU", "config": {"name": "re_lu_48", "trainable": false, "dtype": "float32", "max_value": 6.0, "negative_slope": 0.0, "threshold": 0.0}, "registered_name": null, "build_config": {"input_shape": [null, 14, 14, 120]}, "name": "re_lu_48", "inbound_nodes": [[["tf.__operators__.add_38", 0, 0, {}]]]}, {"module": "keras.src.layers.core.tf_op_layer", "class_name": "TFOpLambda", "config": {"name": "tf.math.multiply_38", "trainable": false, "dtype": "float32", "function": "math.multiply"}, "registered_name": "TFOpLambda", "build_config": {"input_shape": [null, 14, 14, 120]}, "name": "tf.math.multiply_38", "inbound_nodes": [["re_lu_48", 0, 0, {"y": 0.16666666666666666, "name": null}]]}, {"module": "keras.layers", "class_name": "Multiply", "config": {"name": "multiply_25", "trainable": false, "dtype": "float32"}, "registered_name": null, "build_config": {"input_shape": [[null, 14, 14, 120], [null, 14, 14, 120]]}, "name": "multiply_25", "inbound_nodes": [[["expanded_conv_6/expand/BatchNorm", 0, 0, {}], ["tf.math.multiply_38", 0, 0, {}]]]}, {"module": "keras.layers", "class_name": "DepthwiseConv2D", "config": {"name": "expanded_conv_6/depthwise", "trainable": false, "dtype": "float32", "kernel_size": [5, 5], "strides": [1, 1], "padding": "same", "data_format": "channels_last", "dilation_rate": [1, 1], "groups": 1, "activation": "linear", "use_bias": false, "bias_initializer": {"module": "keras.initializers", "class_name": "Zeros", "config": {}, "registered_name": null}, "bias_regularizer": null, "activity_regularizer": null, "bias_constraint": null, "depth_multiplier": 1, "depthwise_initializer": {"module": "keras.initializers", "class_name": "GlorotUniform", "config": {"seed": null}, "registered_name": null}, "depthwise_regularizer": null, "depthwise_constraint": null}, "registered_name": null, "build_config": {"input_shape": [null, 14, 14, 120]}, "name": "expanded_conv_6/depthwise", "inbound_nodes": [[["multiply_25", 0, 0, {}]]]}, {"module": "keras.layers", "class_name": "BatchNormalization", "config": {"name": "expanded_conv_6/depthwise/BatchNorm", "trainable": false, "dtype": "float32", "axis": [3], "momentum": 0.999, "epsilon": 0.001, "center": true, "scale": true, "beta_initializer": {"module": "keras.initializers", "class_name": "Zeros", "config": {}, "registered_name": null}, "gamma_initializer": {"module": "keras.initializers", "class_name": "Ones", "config": {}, "registered_name": null}, "moving_mean_initializer": {"module": "keras.initializers", "class_name": "Zeros", "config": {}, "registered_name": null}, "moving_variance_initializer": {"module": "keras.initializers", "class_name": "Ones", "config": {}, "registered_name": null}, "beta_regularizer": null, "gamma_regularizer": null, "beta_constraint": null, "gamma_constraint": null}, "registered_name": null, "build_config": {"input_shape": [null, 14, 14, 120]}, "name": "expanded_conv_6/depthwise/BatchNorm", "inbound_nodes": [[["expanded_conv_6/depthwise", 0, 0, {}]]]}, {"module": "keras.src.layers.core.tf_op_layer", "class_name": "TFOpLambda", "config": {"name": "tf.__operators__.add_39", "trainable": false, "dtype": "float32", "function": "__operators__.add"}, "registered_name": "TFOpLambda", "build_config": {"input_shape": [null, 14, 14, 120]}, "name": "tf.__operators__.add_39", "inbound_nodes": [["expanded_conv_6/depthwise/BatchNorm", 0, 0, {"y": 3.0, "name": null}]]}, {"module": "keras.layers", "class_name": "ReLU", "config": {"name": "re_lu_49", "trainable": false, "dtype": "float32", "max_value": 6.0, "negative_slope": 0.0, "threshold": 0.0}, "registered_name": null, "build_config": {"input_shape": [null, 14, 14, 120]}, "name": "re_lu_49", "inbound_nodes": [[["tf.__operators__.add_39", 0, 0, {}]]]}, {"module": "keras.src.layers.core.tf_op_layer", "class_name": "TFOpLambda", "config": {"name": "tf.math.multiply_39", "trainable": false, "dtype": "float32", "function": "math.multiply"}, "registered_name": "TFOpLambda", "build_config": {"input_shape": [null, 14, 14, 120]}, "name": "tf.math.multiply_39", "inbound_nodes": [["re_lu_49", 0, 0, {"y": 0.16666666666666666, "name": null}]]}, {"module": "keras.layers", "class_name": "Multiply", "config": {"name": "multiply_26", "trainable": false, "dtype": "float32"}, "registered_name": null, "build_config": {"input_shape": [[null, 14, 14, 120], [null, 14, 14, 120]]}, "name": "multiply_26", "inbound_nodes": [[["expanded_conv_6/depthwise/BatchNorm", 0, 0, {}], ["tf.math.multiply_39", 0, 0, {}]]]}, {"module": "keras.layers", "class_name": "GlobalAveragePooling2D", "config": {"name": "expanded_conv_6/squeeze_excite/AvgPool", "trainable": false, "dtype": "float32", "data_format": "channels_last", "keepdims": true}, "registered_name": null, "build_config": {"input_shape": [null, 14, 14, 120]}, "name": "expanded_conv_6/squeeze_excite/AvgPool", "inbound_nodes": [[["multiply_26", 0, 0, {}]]]}, {"module": "keras.layers", "class_name": "Conv2D", "config": {"name": "expanded_conv_6/squeeze_excite/Conv", "trainable": false, "dtype": "float32", "filters": 32, "kernel_size": [1, 1], "strides": [1, 1], "padding": "same", "data_format": "channels_last", "dilation_rate": [1, 1], "groups": 1, "activation": "linear", "use_bias": true, "kernel_initializer": {"module": "keras.initializers", "class_name": "GlorotUniform", "config": {"seed": null}, "registered_name": null}, "bias_initializer": {"module": "keras.initializers", "class_name": "Zeros", "config": {}, "registered_name": null}, "kernel_regularizer": null, "bias_regularizer": null, "activity_regularizer": null, "kernel_constraint": null, "bias_constraint": null}, "registered_name": null, "build_config": {"input_shape": [null, 1, 1, 120]}, "name": "expanded_conv_6/squeeze_excite/Conv", "inbound_nodes": [[["expanded_conv_6/squeeze_excite/AvgPool", 0, 0, {}]]]}, {"module": "keras.layers", "class_name": "ReLU", "config": {"name": "expanded_conv_6/squeeze_excite/Relu", "trainable": false, "dtype": "float32", "max_value": null, "negative_slope": 0.0, "threshold": 0.0}, "registered_name": null, "build_config": {"input_shape": [null, 1, 1, 32]}, "name": "expanded_conv_6/squeeze_excite/Relu", "inbound_nodes": [[["expanded_conv_6/squeeze_excite/Conv", 0, 0, {}]]]}, {"module": "keras.layers", "class_name": "Conv2D", "config": {"name": "expanded_conv_6/squeeze_excite/Conv_1", "trainable": false, "dtype": "float32", "filters": 120, "kernel_size": [1, 1], "strides": [1, 1], "padding": "same", "data_format": "channels_last", "dilation_rate": [1, 1], "groups": 1, "activation": "linear", "use_bias": true, "kernel_initializer": {"module": "keras.initializers", "class_name": "GlorotUniform", "config": {"seed": null}, "registered_name": null}, "bias_initializer": {"module": "keras.initializers", "class_name": "Zeros", "config": {}, "registered_name": null}, "kernel_regularizer": null, "bias_regularizer": null, "activity_regularizer": null, "kernel_constraint": null, "bias_constraint": null}, "registered_name": null, "build_config": {"input_shape": [null, 1, 1, 32]}, "name": "expanded_conv_6/squeeze_excite/Conv_1", "inbound_nodes": [[["expanded_conv_6/squeeze_excite/Relu", 0, 0, {}]]]}, {"module": "keras.src.layers.core.tf_op_layer", "class_name": "TFOpLambda", "config": {"name": "tf.__operators__.add_40", "trainable": false, "dtype": "float32", "function": "__operators__.add"}, "registered_name": "TFOpLambda", "build_config": {"input_shape": [null, 1, 1, 120]}, "name": "tf.__operators__.add_40", "inbound_nodes": [["expanded_conv_6/squeeze_excite/Conv_1", 0, 0, {"y": 3.0, "name": null}]]}, {"module": "keras.layers", "class_name": "ReLU", "config": {"name": "re_lu_50", "trainable": false, "dtype": "float32", "max_value": 6.0, "negative_slope": 0.0, "threshold": 0.0}, "registered_name": null, "build_config": {"input_shape": [null, 1, 1, 120]}, "name": "re_lu_50", "inbound_nodes": [[["tf.__operators__.add_40", 0, 0, {}]]]}, {"module": "keras.src.layers.core.tf_op_layer", "class_name": "TFOpLambda", "config": {"name": "tf.math.multiply_40", "trainable": false, "dtype": "float32", "function": "math.multiply"}, "registered_name": "TFOpLambda", "build_config": {"input_shape": [null, 1, 1, 120]}, "name": "tf.math.multiply_40", "inbound_nodes": [["re_lu_50", 0, 0, {"y": 0.16666666666666666, "name": null}]]}, {"module": "keras.layers", "class_name": "Multiply", "config": {"name": "expanded_conv_6/squeeze_excite/Mul", "trainable": false, "dtype": "float32"}, "registered_name": null, "build_config": {"input_shape": [[null, 14, 14, 120], [null, 1, 1, 120]]}, "name": "expanded_conv_6/squeeze_excite/Mul", "inbound_nodes": [[["multiply_26", 0, 0, {}], ["tf.math.multiply_40", 0, 0, {}]]]}, {"module": "keras.layers", "class_name": "Conv2D", "config": {"name": "expanded_conv_6/project", "trainable": false, "dtype": "float32", "filters": 48, "kernel_size": [1, 1], "strides": [1, 1], "padding": "same", "data_format": "channels_last", "dilation_rate": [1, 1], "groups": 1, "activation": "linear", "use_bias": false, "kernel_initializer": {"module": "keras.initializers", "class_name": "GlorotUniform", "config": {"seed": null}, "registered_name": null}, "bias_initializer": {"module": "keras.initializers", "class_name": "Zeros", "config": {}, "registered_name": null}, "kernel_regularizer": null, "bias_regularizer": null, "activity_regularizer": null, "kernel_constraint": null, "bias_constraint": null}, "registered_name": null, "build_config": {"input_shape": [null, 14, 14, 120]}, "name": "expanded_conv_6/project", "inbound_nodes": [[["expanded_conv_6/squeeze_excite/Mul", 0, 0, {}]]]}, {"module": "keras.layers", "class_name": "BatchNormalization", "config": {"name": "expanded_conv_6/project/BatchNorm", "trainable": false, "dtype": "float32", "axis": [3], "momentum": 0.999, "epsilon": 0.001, "center": true, "scale": true, "beta_initializer": {"module": "keras.initializers", "class_name": "Zeros", "config": {}, "registered_name": null}, "gamma_initializer": {"module": "keras.initializers", "class_name": "Ones", "config": {}, "registered_name": null}, "moving_mean_initializer": {"module": "keras.initializers", "class_name": "Zeros", "config": {}, "registered_name": null}, "moving_variance_initializer": {"module": "keras.initializers", "class_name": "Ones", "config": {}, "registered_name": null}, "beta_regularizer": null, "gamma_regularizer": null, "beta_constraint": null, "gamma_constraint": null}, "registered_name": null, "build_config": {"input_shape": [null, 14, 14, 48]}, "name": "expanded_conv_6/project/BatchNorm", "inbound_nodes": [[["expanded_conv_6/project", 0, 0, {}]]]}, {"module": "keras.layers", "class_name": "Conv2D", "config": {"name": "expanded_conv_7/expand", "trainable": false, "dtype": "float32", "filters": 144, "kernel_size": [1, 1], "strides": [1, 1], "padding": "same", "data_format": "channels_last", "dilation_rate": [1, 1], "groups": 1, "activation": "linear", "use_bias": false, "kernel_initializer": {"module": "keras.initializers", "class_name": "GlorotUniform", "config": {"seed": null}, "registered_name": null}, "bias_initializer": {"module": "keras.initializers", "class_name": "Zeros", "config": {}, "registered_name": null}, "kernel_regularizer": null, "bias_regularizer": null, "activity_regularizer": null, "kernel_constraint": null, "bias_constraint": null}, "registered_name": null, "build_config": {"input_shape": [null, 14, 14, 48]}, "name": "expanded_conv_7/expand", "inbound_nodes": [[["expanded_conv_6/project/BatchNorm", 0, 0, {}]]]}, {"module": "keras.layers", "class_name": "BatchNormalization", "config": {"name": "expanded_conv_7/expand/BatchNorm", "trainable": false, "dtype": "float32", "axis": [3], "momentum": 0.999, "epsilon": 0.001, "center": true, "scale": true, "beta_initializer": {"module": "keras.initializers", "class_name": "Zeros", "config": {}, "registered_name": null}, "gamma_initializer": {"module": "keras.initializers", "class_name": "Ones", "config": {}, "registered_name": null}, "moving_mean_initializer": {"module": "keras.initializers", "class_name": "Zeros", "config": {}, "registered_name": null}, "moving_variance_initializer": {"module": "keras.initializers", "class_name": "Ones", "config": {}, "registered_name": null}, "beta_regularizer": null, "gamma_regularizer": null, "beta_constraint": null, "gamma_constraint": null}, "registered_name": null, "build_config": {"input_shape": [null, 14, 14, 144]}, "name": "expanded_conv_7/expand/BatchNorm", "inbound_nodes": [[["expanded_conv_7/expand", 0, 0, {}]]]}, {"module": "keras.src.layers.core.tf_op_layer", "class_name": "TFOpLambda", "config": {"name": "tf.__operators__.add_41", "trainable": false, "dtype": "float32", "function": "__operators__.add"}, "registered_name": "TFOpLambda", "build_config": {"input_shape": [null, 14, 14, 144]}, "name": "tf.__operators__.add_41", "inbound_nodes": [["expanded_conv_7/expand/BatchNorm", 0, 0, {"y": 3.0, "name": null}]]}, {"module": "keras.layers", "class_name": "ReLU", "config": {"name": "re_lu_51", "trainable": false, "dtype": "float32", "max_value": 6.0, "negative_slope": 0.0, "threshold": 0.0}, "registered_name": null, "build_config": {"input_shape": [null, 14, 14, 144]}, "name": "re_lu_51", "inbound_nodes": [[["tf.__operators__.add_41", 0, 0, {}]]]}, {"module": "keras.src.layers.core.tf_op_layer", "class_name": "TFOpLambda", "config": {"name": "tf.math.multiply_41", "trainable": false, "dtype": "float32", "function": "math.multiply"}, "registered_name": "TFOpLambda", "build_config": {"input_shape": [null, 14, 14, 144]}, "name": "tf.math.multiply_41", "inbound_nodes": [["re_lu_51", 0, 0, {"y": 0.16666666666666666, "name": null}]]}, {"module": "keras.layers", "class_name": "Multiply", "config": {"name": "multiply_27", "trainable": false, "dtype": "float32"}, "registered_name": null, "build_config": {"input_shape": [[null, 14, 14, 144], [null, 14, 14, 144]]}, "name": "multiply_27", "inbound_nodes": [[["expanded_conv_7/expand/BatchNorm", 0, 0, {}], ["tf.math.multiply_41", 0, 0, {}]]]}, {"module": "keras.layers", "class_name": "DepthwiseConv2D", "config": {"name": "expanded_conv_7/depthwise", "trainable": false, "dtype": "float32", "kernel_size": [5, 5], "strides": [1, 1], "padding": "same", "data_format": "channels_last", "dilation_rate": [1, 1], "groups": 1, "activation": "linear", "use_bias": false, "bias_initializer": {"module": "keras.initializers", "class_name": "Zeros", "config": {}, "registered_name": null}, "bias_regularizer": null, "activity_regularizer": null, "bias_constraint": null, "depth_multiplier": 1, "depthwise_initializer": {"module": "keras.initializers", "class_name": "GlorotUniform", "config": {"seed": null}, "registered_name": null}, "depthwise_regularizer": null, "depthwise_constraint": null}, "registered_name": null, "build_config": {"input_shape": [null, 14, 14, 144]}, "name": "expanded_conv_7/depthwise", "inbound_nodes": [[["multiply_27", 0, 0, {}]]]}, {"module": "keras.layers", "class_name": "BatchNormalization", "config": {"name": "expanded_conv_7/depthwise/BatchNorm", "trainable": false, "dtype": "float32", "axis": [3], "momentum": 0.999, "epsilon": 0.001, "center": true, "scale": true, "beta_initializer": {"module": "keras.initializers", "class_name": "Zeros", "config": {}, "registered_name": null}, "gamma_initializer": {"module": "keras.initializers", "class_name": "Ones", "config": {}, "registered_name": null}, "moving_mean_initializer": {"module": "keras.initializers", "class_name": "Zeros", "config": {}, "registered_name": null}, "moving_variance_initializer": {"module": "keras.initializers", "class_name": "Ones", "config": {}, "registered_name": null}, "beta_regularizer": null, "gamma_regularizer": null, "beta_constraint": null, "gamma_constraint": null}, "registered_name": null, "build_config": {"input_shape": [null, 14, 14, 144]}, "name": "expanded_conv_7/depthwise/BatchNorm", "inbound_nodes": [[["expanded_conv_7/depthwise", 0, 0, {}]]]}, {"module": "keras.src.layers.core.tf_op_layer", "class_name": "TFOpLambda", "config": {"name": "tf.__operators__.add_42", "trainable": false, "dtype": "float32", "function": "__operators__.add"}, "registered_name": "TFOpLambda", "build_config": {"input_shape": [null, 14, 14, 144]}, "name": "tf.__operators__.add_42", "inbound_nodes": [["expanded_conv_7/depthwise/BatchNorm", 0, 0, {"y": 3.0, "name": null}]]}, {"module": "keras.layers", "class_name": "ReLU", "config": {"name": "re_lu_52", "trainable": false, "dtype": "float32", "max_value": 6.0, "negative_slope": 0.0, "threshold": 0.0}, "registered_name": null, "build_config": {"input_shape": [null, 14, 14, 144]}, "name": "re_lu_52", "inbound_nodes": [[["tf.__operators__.add_42", 0, 0, {}]]]}, {"module": "keras.src.layers.core.tf_op_layer", "class_name": "TFOpLambda", "config": {"name": "tf.math.multiply_42", "trainable": false, "dtype": "float32", "function": "math.multiply"}, "registered_name": "TFOpLambda", "build_config": {"input_shape": [null, 14, 14, 144]}, "name": "tf.math.multiply_42", "inbound_nodes": [["re_lu_52", 0, 0, {"y": 0.16666666666666666, "name": null}]]}, {"module": "keras.layers", "class_name": "Multiply", "config": {"name": "multiply_28", "trainable": false, "dtype": "float32"}, "registered_name": null, "build_config": {"input_shape": [[null, 14, 14, 144], [null, 14, 14, 144]]}, "name": "multiply_28", "inbound_nodes": [[["expanded_conv_7/depthwise/BatchNorm", 0, 0, {}], ["tf.math.multiply_42", 0, 0, {}]]]}, {"module": "keras.layers", "class_name": "GlobalAveragePooling2D", "config": {"name": "expanded_conv_7/squeeze_excite/AvgPool", "trainable": false, "dtype": "float32", "data_format": "channels_last", "keepdims": true}, "registered_name": null, "build_config": {"input_shape": [null, 14, 14, 144]}, "name": "expanded_conv_7/squeeze_excite/AvgPool", "inbound_nodes": [[["multiply_28", 0, 0, {}]]]}, {"module": "keras.layers", "class_name": "Conv2D", "config": {"name": "expanded_conv_7/squeeze_excite/Conv", "trainable": false, "dtype": "float32", "filters": 40, "kernel_size": [1, 1], "strides": [1, 1], "padding": "same", "data_format": "channels_last", "dilation_rate": [1, 1], "groups": 1, "activation": "linear", "use_bias": true, "kernel_initializer": {"module": "keras.initializers", "class_name": "GlorotUniform", "config": {"seed": null}, "registered_name": null}, "bias_initializer": {"module": "keras.initializers", "class_name": "Zeros", "config": {}, "registered_name": null}, "kernel_regularizer": null, "bias_regularizer": null, "activity_regularizer": null, "kernel_constraint": null, "bias_constraint": null}, "registered_name": null, "build_config": {"input_shape": [null, 1, 1, 144]}, "name": "expanded_conv_7/squeeze_excite/Conv", "inbound_nodes": [[["expanded_conv_7/squeeze_excite/AvgPool", 0, 0, {}]]]}, {"module": "keras.layers", "class_name": "ReLU", "config": {"name": "expanded_conv_7/squeeze_excite/Relu", "trainable": false, "dtype": "float32", "max_value": null, "negative_slope": 0.0, "threshold": 0.0}, "registered_name": null, "build_config": {"input_shape": [null, 1, 1, 40]}, "name": "expanded_conv_7/squeeze_excite/Relu", "inbound_nodes": [[["expanded_conv_7/squeeze_excite/Conv", 0, 0, {}]]]}, {"module": "keras.layers", "class_name": "Conv2D", "config": {"name": "expanded_conv_7/squeeze_excite/Conv_1", "trainable": false, "dtype": "float32", "filters": 144, "kernel_size": [1, 1], "strides": [1, 1], "padding": "same", "data_format": "channels_last", "dilation_rate": [1, 1], "groups": 1, "activation": "linear", "use_bias": true, "kernel_initializer": {"module": "keras.initializers", "class_name": "GlorotUniform", "config": {"seed": null}, "registered_name": null}, "bias_initializer": {"module": "keras.initializers", "class_name": "Zeros", "config": {}, "registered_name": null}, "kernel_regularizer": null, "bias_regularizer": null, "activity_regularizer": null, "kernel_constraint": null, "bias_constraint": null}, "registered_name": null, "build_config": {"input_shape": [null, 1, 1, 40]}, "name": "expanded_conv_7/squeeze_excite/Conv_1", "inbound_nodes": [[["expanded_conv_7/squeeze_excite/Relu", 0, 0, {}]]]}, {"module": "keras.src.layers.core.tf_op_layer", "class_name": "TFOpLambda", "config": {"name": "tf.__operators__.add_43", "trainable": false, "dtype": "float32", "function": "__operators__.add"}, "registered_name": "TFOpLambda", "build_config": {"input_shape": [null, 1, 1, 144]}, "name": "tf.__operators__.add_43", "inbound_nodes": [["expanded_conv_7/squeeze_excite/Conv_1", 0, 0, {"y": 3.0, "name": null}]]}, {"module": "keras.layers", "class_name": "ReLU", "config": {"name": "re_lu_53", "trainable": false, "dtype": "float32", "max_value": 6.0, "negative_slope": 0.0, "threshold": 0.0}, "registered_name": null, "build_config": {"input_shape": [null, 1, 1, 144]}, "name": "re_lu_53", "inbound_nodes": [[["tf.__operators__.add_43", 0, 0, {}]]]}, {"module": "keras.src.layers.core.tf_op_layer", "class_name": "TFOpLambda", "config": {"name": "tf.math.multiply_43", "trainable": false, "dtype": "float32", "function": "math.multiply"}, "registered_name": "TFOpLambda", "build_config": {"input_shape": [null, 1, 1, 144]}, "name": "tf.math.multiply_43", "inbound_nodes": [["re_lu_53", 0, 0, {"y": 0.16666666666666666, "name": null}]]}, {"module": "keras.layers", "class_name": "Multiply", "config": {"name": "expanded_conv_7/squeeze_excite/Mul", "trainable": false, "dtype": "float32"}, "registered_name": null, "build_config": {"input_shape": [[null, 14, 14, 144], [null, 1, 1, 144]]}, "name": "expanded_conv_7/squeeze_excite/Mul", "inbound_nodes": [[["multiply_28", 0, 0, {}], ["tf.math.multiply_43", 0, 0, {}]]]}, {"module": "keras.layers", "class_name": "Conv2D", "config": {"name": "expanded_conv_7/project", "trainable": false, "dtype": "float32", "filters": 48, "kernel_size": [1, 1], "strides": [1, 1], "padding": "same", "data_format": "channels_last", "dilation_rate": [1, 1], "groups": 1, "activation": "linear", "use_bias": false, "kernel_initializer": {"module": "keras.initializers", "class_name": "GlorotUniform", "config": {"seed": null}, "registered_name": null}, "bias_initializer": {"module": "keras.initializers", "class_name": "Zeros", "config": {}, "registered_name": null}, "kernel_regularizer": null, "bias_regularizer": null, "activity_regularizer": null, "kernel_constraint": null, "bias_constraint": null}, "registered_name": null, "build_config": {"input_shape": [null, 14, 14, 144]}, "name": "expanded_conv_7/project", "inbound_nodes": [[["expanded_conv_7/squeeze_excite/Mul", 0, 0, {}]]]}, {"module": "keras.layers", "class_name": "BatchNormalization", "config": {"name": "expanded_conv_7/project/BatchNorm", "trainable": false, "dtype": "float32", "axis": [3], "momentum": 0.999, "epsilon": 0.001, "center": true, "scale": true, "beta_initializer": {"module": "keras.initializers", "class_name": "Zeros", "config": {}, "registered_name": null}, "gamma_initializer": {"module": "keras.initializers", "class_name": "Ones", "config": {}, "registered_name": null}, "moving_mean_initializer": {"module": "keras.initializers", "class_name": "Zeros", "config": {}, "registered_name": null}, "moving_variance_initializer": {"module": "keras.initializers", "class_name": "Ones", "config": {}, "registered_name": null}, "beta_regularizer": null, "gamma_regularizer": null, "beta_constraint": null, "gamma_constraint": null}, "registered_name": null, "build_config": {"input_shape": [null, 14, 14, 48]}, "name": "expanded_conv_7/project/BatchNorm", "inbound_nodes": [[["expanded_conv_7/project", 0, 0, {}]]]}, {"module": "keras.layers", "class_name": "Add", "config": {"name": "expanded_conv_7/Add", "trainable": false, "dtype": "float32"}, "registered_name": null, "build_config": {"input_shape": [[null, 14, 14, 48], [null, 14, 14, 48]]}, "name": "expanded_conv_7/Add", "inbound_nodes": [[["expanded_conv_6/project/BatchNorm", 0, 0, {}], ["expanded_conv_7/project/BatchNorm", 0, 0, {}]]]}, {"module": "keras.layers", "class_name": "Conv2D", "config": {"name": "expanded_conv_8/expand", "trainable": false, "dtype": "float32", "filters": 288, "kernel_size": [1, 1], "strides": [1, 1], "padding": "same", "data_format": "channels_last", "dilation_rate": [1, 1], "groups": 1, "activation": "linear", "use_bias": false, "kernel_initializer": {"module": "keras.initializers", "class_name": "GlorotUniform", "config": {"seed": null}, "registered_name": null}, "bias_initializer": {"module": "keras.initializers", "class_name": "Zeros", "config": {}, "registered_name": null}, "kernel_regularizer": null, "bias_regularizer": null, "activity_regularizer": null, "kernel_constraint": null, "bias_constraint": null}, "registered_name": null, "build_config": {"input_shape": [null, 14, 14, 48]}, "name": "expanded_conv_8/expand", "inbound_nodes": [[["expanded_conv_7/Add", 0, 0, {}]]]}, {"module": "keras.layers", "class_name": "BatchNormalization", "config": {"name": "expanded_conv_8/expand/BatchNorm", "trainable": false, "dtype": "float32", "axis": [3], "momentum": 0.999, "epsilon": 0.001, "center": true, "scale": true, "beta_initializer": {"module": "keras.initializers", "class_name": "Zeros", "config": {}, "registered_name": null}, "gamma_initializer": {"module": "keras.initializers", "class_name": "Ones", "config": {}, "registered_name": null}, "moving_mean_initializer": {"module": "keras.initializers", "class_name": "Zeros", "config": {}, "registered_name": null}, "moving_variance_initializer": {"module": "keras.initializers", "class_name": "Ones", "config": {}, "registered_name": null}, "beta_regularizer": null, "gamma_regularizer": null, "beta_constraint": null, "gamma_constraint": null}, "registered_name": null, "build_config": {"input_shape": [null, 14, 14, 288]}, "name": "expanded_conv_8/expand/BatchNorm", "inbound_nodes": [[["expanded_conv_8/expand", 0, 0, {}]]]}, {"module": "keras.src.layers.core.tf_op_layer", "class_name": "TFOpLambda", "config": {"name": "tf.__operators__.add_44", "trainable": false, "dtype": "float32", "function": "__operators__.add"}, "registered_name": "TFOpLambda", "build_config": {"input_shape": [null, 14, 14, 288]}, "name": "tf.__operators__.add_44", "inbound_nodes": [["expanded_conv_8/expand/BatchNorm", 0, 0, {"y": 3.0, "name": null}]]}, {"module": "keras.layers", "class_name": "ReLU", "config": {"name": "re_lu_54", "trainable": false, "dtype": "float32", "max_value": 6.0, "negative_slope": 0.0, "threshold": 0.0}, "registered_name": null, "build_config": {"input_shape": [null, 14, 14, 288]}, "name": "re_lu_54", "inbound_nodes": [[["tf.__operators__.add_44", 0, 0, {}]]]}, {"module": "keras.src.layers.core.tf_op_layer", "class_name": "TFOpLambda", "config": {"name": "tf.math.multiply_44", "trainable": false, "dtype": "float32", "function": "math.multiply"}, "registered_name": "TFOpLambda", "build_config": {"input_shape": [null, 14, 14, 288]}, "name": "tf.math.multiply_44", "inbound_nodes": [["re_lu_54", 0, 0, {"y": 0.16666666666666666, "name": null}]]}, {"module": "keras.layers", "class_name": "Multiply", "config": {"name": "multiply_29", "trainable": false, "dtype": "float32"}, "registered_name": null, "build_config": {"input_shape": [[null, 14, 14, 288], [null, 14, 14, 288]]}, "name": "multiply_29", "inbound_nodes": [[["expanded_conv_8/expand/BatchNorm", 0, 0, {}], ["tf.math.multiply_44", 0, 0, {}]]]}, {"module": "keras.layers", "class_name": "ZeroPadding2D", "config": {"name": "expanded_conv_8/depthwise/pad", "trainable": false, "dtype": "float32", "padding": [[1, 2], [1, 2]], "data_format": "channels_last"}, "registered_name": null, "build_config": {"input_shape": [null, 14, 14, 288]}, "name": "expanded_conv_8/depthwise/pad", "inbound_nodes": [[["multiply_29", 0, 0, {}]]]}, {"module": "keras.layers", "class_name": "DepthwiseConv2D", "config": {"name": "expanded_conv_8/depthwise", "trainable": false, "dtype": "float32", "kernel_size": [5, 5], "strides": [2, 2], "padding": "valid", "data_format": "channels_last", "dilation_rate": [1, 1], "groups": 1, "activation": "linear", "use_bias": false, "bias_initializer": {"module": "keras.initializers", "class_name": "Zeros", "config": {}, "registered_name": null}, "bias_regularizer": null, "activity_regularizer": null, "bias_constraint": null, "depth_multiplier": 1, "depthwise_initializer": {"module": "keras.initializers", "class_name": "GlorotUniform", "config": {"seed": null}, "registered_name": null}, "depthwise_regularizer": null, "depthwise_constraint": null}, "registered_name": null, "build_config": {"input_shape": [null, 17, 17, 288]}, "name": "expanded_conv_8/depthwise", "inbound_nodes": [[["expanded_conv_8/depthwise/pad", 0, 0, {}]]]}, {"module": "keras.layers", "class_name": "BatchNormalization", "config": {"name": "expanded_conv_8/depthwise/BatchNorm", "trainable": false, "dtype": "float32", "axis": [3], "momentum": 0.999, "epsilon": 0.001, "center": true, "scale": true, "beta_initializer": {"module": "keras.initializers", "class_name": "Zeros", "config": {}, "registered_name": null}, "gamma_initializer": {"module": "keras.initializers", "class_name": "Ones", "config": {}, "registered_name": null}, "moving_mean_initializer": {"module": "keras.initializers", "class_name": "Zeros", "config": {}, "registered_name": null}, "moving_variance_initializer": {"module": "keras.initializers", "class_name": "Ones", "config": {}, "registered_name": null}, "beta_regularizer": null, "gamma_regularizer": null, "beta_constraint": null, "gamma_constraint": null}, "registered_name": null, "build_config": {"input_shape": [null, 7, 7, 288]}, "name": "expanded_conv_8/depthwise/BatchNorm", "inbound_nodes": [[["expanded_conv_8/depthwise", 0, 0, {}]]]}, {"module": "keras.src.layers.core.tf_op_layer", "class_name": "TFOpLambda", "config": {"name": "tf.__operators__.add_45", "trainable": false, "dtype": "float32", "function": "__operators__.add"}, "registered_name": "TFOpLambda", "build_config": {"input_shape": [null, 7, 7, 288]}, "name": "tf.__operators__.add_45", "inbound_nodes": [["expanded_conv_8/depthwise/BatchNorm", 0, 0, {"y": 3.0, "name": null}]]}, {"module": "keras.layers", "class_name": "ReLU", "config": {"name": "re_lu_55", "trainable": false, "dtype": "float32", "max_value": 6.0, "negative_slope": 0.0, "threshold": 0.0}, "registered_name": null, "build_config": {"input_shape": [null, 7, 7, 288]}, "name": "re_lu_55", "inbound_nodes": [[["tf.__operators__.add_45", 0, 0, {}]]]}, {"module": "keras.src.layers.core.tf_op_layer", "class_name": "TFOpLambda", "config": {"name": "tf.math.multiply_45", "trainable": false, "dtype": "float32", "function": "math.multiply"}, "registered_name": "TFOpLambda", "build_config": {"input_shape": [null, 7, 7, 288]}, "name": "tf.math.multiply_45", "inbound_nodes": [["re_lu_55", 0, 0, {"y": 0.16666666666666666, "name": null}]]}, {"module": "keras.layers", "class_name": "Multiply", "config": {"name": "multiply_30", "trainable": false, "dtype": "float32"}, "registered_name": null, "build_config": {"input_shape": [[null, 7, 7, 288], [null, 7, 7, 288]]}, "name": "multiply_30", "inbound_nodes": [[["expanded_conv_8/depthwise/BatchNorm", 0, 0, {}], ["tf.math.multiply_45", 0, 0, {}]]]}, {"module": "keras.layers", "class_name": "GlobalAveragePooling2D", "config": {"name": "expanded_conv_8/squeeze_excite/AvgPool", "trainable": false, "dtype": "float32", "data_format": "channels_last", "keepdims": true}, "registered_name": null, "build_config": {"input_shape": [null, 7, 7, 288]}, "name": "expanded_conv_8/squeeze_excite/AvgPool", "inbound_nodes": [[["multiply_30", 0, 0, {}]]]}, {"module": "keras.layers", "class_name": "Conv2D", "config": {"name": "expanded_conv_8/squeeze_excite/Conv", "trainable": false, "dtype": "float32", "filters": 72, "kernel_size": [1, 1], "strides": [1, 1], "padding": "same", "data_format": "channels_last", "dilation_rate": [1, 1], "groups": 1, "activation": "linear", "use_bias": true, "kernel_initializer": {"module": "keras.initializers", "class_name": "GlorotUniform", "config": {"seed": null}, "registered_name": null}, "bias_initializer": {"module": "keras.initializers", "class_name": "Zeros", "config": {}, "registered_name": null}, "kernel_regularizer": null, "bias_regularizer": null, "activity_regularizer": null, "kernel_constraint": null, "bias_constraint": null}, "registered_name": null, "build_config": {"input_shape": [null, 1, 1, 288]}, "name": "expanded_conv_8/squeeze_excite/Conv", "inbound_nodes": [[["expanded_conv_8/squeeze_excite/AvgPool", 0, 0, {}]]]}, {"module": "keras.layers", "class_name": "ReLU", "config": {"name": "expanded_conv_8/squeeze_excite/Relu", "trainable": false, "dtype": "float32", "max_value": null, "negative_slope": 0.0, "threshold": 0.0}, "registered_name": null, "build_config": {"input_shape": [null, 1, 1, 72]}, "name": "expanded_conv_8/squeeze_excite/Relu", "inbound_nodes": [[["expanded_conv_8/squeeze_excite/Conv", 0, 0, {}]]]}, {"module": "keras.layers", "class_name": "Conv2D", "config": {"name": "expanded_conv_8/squeeze_excite/Conv_1", "trainable": false, "dtype": "float32", "filters": 288, "kernel_size": [1, 1], "strides": [1, 1], "padding": "same", "data_format": "channels_last", "dilation_rate": [1, 1], "groups": 1, "activation": "linear", "use_bias": true, "kernel_initializer": {"module": "keras.initializers", "class_name": "GlorotUniform", "config": {"seed": null}, "registered_name": null}, "bias_initializer": {"module": "keras.initializers", "class_name": "Zeros", "config": {}, "registered_name": null}, "kernel_regularizer": null, "bias_regularizer": null, "activity_regularizer": null, "kernel_constraint": null, "bias_constraint": null}, "registered_name": null, "build_config": {"input_shape": [null, 1, 1, 72]}, "name": "expanded_conv_8/squeeze_excite/Conv_1", "inbound_nodes": [[["expanded_conv_8/squeeze_excite/Relu", 0, 0, {}]]]}, {"module": "keras.src.layers.core.tf_op_layer", "class_name": "TFOpLambda", "config": {"name": "tf.__operators__.add_46", "trainable": false, "dtype": "float32", "function": "__operators__.add"}, "registered_name": "TFOpLambda", "build_config": {"input_shape": [null, 1, 1, 288]}, "name": "tf.__operators__.add_46", "inbound_nodes": [["expanded_conv_8/squeeze_excite/Conv_1", 0, 0, {"y": 3.0, "name": null}]]}, {"module": "keras.layers", "class_name": "ReLU", "config": {"name": "re_lu_56", "trainable": false, "dtype": "float32", "max_value": 6.0, "negative_slope": 0.0, "threshold": 0.0}, "registered_name": null, "build_config": {"input_shape": [null, 1, 1, 288]}, "name": "re_lu_56", "inbound_nodes": [[["tf.__operators__.add_46", 0, 0, {}]]]}, {"module": "keras.src.layers.core.tf_op_layer", "class_name": "TFOpLambda", "config": {"name": "tf.math.multiply_46", "trainable": false, "dtype": "float32", "function": "math.multiply"}, "registered_name": "TFOpLambda", "build_config": {"input_shape": [null, 1, 1, 288]}, "name": "tf.math.multiply_46", "inbound_nodes": [["re_lu_56", 0, 0, {"y": 0.16666666666666666, "name": null}]]}, {"module": "keras.layers", "class_name": "Multiply", "config": {"name": "expanded_conv_8/squeeze_excite/Mul", "trainable": false, "dtype": "float32"}, "registered_name": null, "build_config": {"input_shape": [[null, 7, 7, 288], [null, 1, 1, 288]]}, "name": "expanded_conv_8/squeeze_excite/Mul", "inbound_nodes": [[["multiply_30", 0, 0, {}], ["tf.math.multiply_46", 0, 0, {}]]]}, {"module": "keras.layers", "class_name": "Conv2D", "config": {"name": "expanded_conv_8/project", "trainable": false, "dtype": "float32", "filters": 96, "kernel_size": [1, 1], "strides": [1, 1], "padding": "same", "data_format": "channels_last", "dilation_rate": [1, 1], "groups": 1, "activation": "linear", "use_bias": false, "kernel_initializer": {"module": "keras.initializers", "class_name": "GlorotUniform", "config": {"seed": null}, "registered_name": null}, "bias_initializer": {"module": "keras.initializers", "class_name": "Zeros", "config": {}, "registered_name": null}, "kernel_regularizer": null, "bias_regularizer": null, "activity_regularizer": null, "kernel_constraint": null, "bias_constraint": null}, "registered_name": null, "build_config": {"input_shape": [null, 7, 7, 288]}, "name": "expanded_conv_8/project", "inbound_nodes": [[["expanded_conv_8/squeeze_excite/Mul", 0, 0, {}]]]}, {"module": "keras.layers", "class_name": "BatchNormalization", "config": {"name": "expanded_conv_8/project/BatchNorm", "trainable": false, "dtype": "float32", "axis": [3], "momentum": 0.999, "epsilon": 0.001, "center": true, "scale": true, "beta_initializer": {"module": "keras.initializers", "class_name": "Zeros", "config": {}, "registered_name": null}, "gamma_initializer": {"module": "keras.initializers", "class_name": "Ones", "config": {}, "registered_name": null}, "moving_mean_initializer": {"module": "keras.initializers", "class_name": "Zeros", "config": {}, "registered_name": null}, "moving_variance_initializer": {"module": "keras.initializers", "class_name": "Ones", "config": {}, "registered_name": null}, "beta_regularizer": null, "gamma_regularizer": null, "beta_constraint": null, "gamma_constraint": null}, "registered_name": null, "build_config": {"input_shape": [null, 7, 7, 96]}, "name": "expanded_conv_8/project/BatchNorm", "inbound_nodes": [[["expanded_conv_8/project", 0, 0, {}]]]}, {"module": "keras.layers", "class_name": "Conv2D", "config": {"name": "expanded_conv_9/expand", "trainable": false, "dtype": "float32", "filters": 576, "kernel_size": [1, 1], "strides": [1, 1], "padding": "same", "data_format": "channels_last", "dilation_rate": [1, 1], "groups": 1, "activation": "linear", "use_bias": false, "kernel_initializer": {"module": "keras.initializers", "class_name": "GlorotUniform", "config": {"seed": null}, "registered_name": null}, "bias_initializer": {"module": "keras.initializers", "class_name": "Zeros", "config": {}, "registered_name": null}, "kernel_regularizer": null, "bias_regularizer": null, "activity_regularizer": null, "kernel_constraint": null, "bias_constraint": null}, "registered_name": null, "build_config": {"input_shape": [null, 7, 7, 96]}, "name": "expanded_conv_9/expand", "inbound_nodes": [[["expanded_conv_8/project/BatchNorm", 0, 0, {}]]]}, {"module": "keras.layers", "class_name": "BatchNormalization", "config": {"name": "expanded_conv_9/expand/BatchNorm", "trainable": false, "dtype": "float32", "axis": [3], "momentum": 0.999, "epsilon": 0.001, "center": true, "scale": true, "beta_initializer": {"module": "keras.initializers", "class_name": "Zeros", "config": {}, "registered_name": null}, "gamma_initializer": {"module": "keras.initializers", "class_name": "Ones", "config": {}, "registered_name": null}, "moving_mean_initializer": {"module": "keras.initializers", "class_name": "Zeros", "config": {}, "registered_name": null}, "moving_variance_initializer": {"module": "keras.initializers", "class_name": "Ones", "config": {}, "registered_name": null}, "beta_regularizer": null, "gamma_regularizer": null, "beta_constraint": null, "gamma_constraint": null}, "registered_name": null, "build_config": {"input_shape": [null, 7, 7, 576]}, "name": "expanded_conv_9/expand/BatchNorm", "inbound_nodes": [[["expanded_conv_9/expand", 0, 0, {}]]]}, {"module": "keras.src.layers.core.tf_op_layer", "class_name": "TFOpLambda", "config": {"name": "tf.__operators__.add_47", "trainable": false, "dtype": "float32", "function": "__operators__.add"}, "registered_name": "TFOpLambda", "build_config": {"input_shape": [null, 7, 7, 576]}, "name": "tf.__operators__.add_47", "inbound_nodes": [["expanded_conv_9/expand/BatchNorm", 0, 0, {"y": 3.0, "name": null}]]}, {"module": "keras.layers", "class_name": "ReLU", "config": {"name": "re_lu_57", "trainable": false, "dtype": "float32", "max_value": 6.0, "negative_slope": 0.0, "threshold": 0.0}, "registered_name": null, "build_config": {"input_shape": [null, 7, 7, 576]}, "name": "re_lu_57", "inbound_nodes": [[["tf.__operators__.add_47", 0, 0, {}]]]}, {"module": "keras.src.layers.core.tf_op_layer", "class_name": "TFOpLambda", "config": {"name": "tf.math.multiply_47", "trainable": false, "dtype": "float32", "function": "math.multiply"}, "registered_name": "TFOpLambda", "build_config": {"input_shape": [null, 7, 7, 576]}, "name": "tf.math.multiply_47", "inbound_nodes": [["re_lu_57", 0, 0, {"y": 0.16666666666666666, "name": null}]]}, {"module": "keras.layers", "class_name": "Multiply", "config": {"name": "multiply_31", "trainable": false, "dtype": "float32"}, "registered_name": null, "build_config": {"input_shape": [[null, 7, 7, 576], [null, 7, 7, 576]]}, "name": "multiply_31", "inbound_nodes": [[["expanded_conv_9/expand/BatchNorm", 0, 0, {}], ["tf.math.multiply_47", 0, 0, {}]]]}, {"module": "keras.layers", "class_name": "DepthwiseConv2D", "config": {"name": "expanded_conv_9/depthwise", "trainable": false, "dtype": "float32", "kernel_size": [5, 5], "strides": [1, 1], "padding": "same", "data_format": "channels_last", "dilation_rate": [1, 1], "groups": 1, "activation": "linear", "use_bias": false, "bias_initializer": {"module": "keras.initializers", "class_name": "Zeros", "config": {}, "registered_name": null}, "bias_regularizer": null, "activity_regularizer": null, "bias_constraint": null, "depth_multiplier": 1, "depthwise_initializer": {"module": "keras.initializers", "class_name": "GlorotUniform", "config": {"seed": null}, "registered_name": null}, "depthwise_regularizer": null, "depthwise_constraint": null}, "registered_name": null, "build_config": {"input_shape": [null, 7, 7, 576]}, "name": "expanded_conv_9/depthwise", "inbound_nodes": [[["multiply_31", 0, 0, {}]]]}, {"module": "keras.layers", "class_name": "BatchNormalization", "config": {"name": "expanded_conv_9/depthwise/BatchNorm", "trainable": false, "dtype": "float32", "axis": [3], "momentum": 0.999, "epsilon": 0.001, "center": true, "scale": true, "beta_initializer": {"module": "keras.initializers", "class_name": "Zeros", "config": {}, "registered_name": null}, "gamma_initializer": {"module": "keras.initializers", "class_name": "Ones", "config": {}, "registered_name": null}, "moving_mean_initializer": {"module": "keras.initializers", "class_name": "Zeros", "config": {}, "registered_name": null}, "moving_variance_initializer": {"module": "keras.initializers", "class_name": "Ones", "config": {}, "registered_name": null}, "beta_regularizer": null, "gamma_regularizer": null, "beta_constraint": null, "gamma_constraint": null}, "registered_name": null, "build_config": {"input_shape": [null, 7, 7, 576]}, "name": "expanded_conv_9/depthwise/BatchNorm", "inbound_nodes": [[["expanded_conv_9/depthwise", 0, 0, {}]]]}, {"module": "keras.src.layers.core.tf_op_layer", "class_name": "TFOpLambda", "config": {"name": "tf.__operators__.add_48", "trainable": false, "dtype": "float32", "function": "__operators__.add"}, "registered_name": "TFOpLambda", "build_config": {"input_shape": [null, 7, 7, 576]}, "name": "tf.__operators__.add_48", "inbound_nodes": [["expanded_conv_9/depthwise/BatchNorm", 0, 0, {"y": 3.0, "name": null}]]}, {"module": "keras.layers", "class_name": "ReLU", "config": {"name": "re_lu_58", "trainable": false, "dtype": "float32", "max_value": 6.0, "negative_slope": 0.0, "threshold": 0.0}, "registered_name": null, "build_config": {"input_shape": [null, 7, 7, 576]}, "name": "re_lu_58", "inbound_nodes": [[["tf.__operators__.add_48", 0, 0, {}]]]}, {"module": "keras.src.layers.core.tf_op_layer", "class_name": "TFOpLambda", "config": {"name": "tf.math.multiply_48", "trainable": false, "dtype": "float32", "function": "math.multiply"}, "registered_name": "TFOpLambda", "build_config": {"input_shape": [null, 7, 7, 576]}, "name": "tf.math.multiply_48", "inbound_nodes": [["re_lu_58", 0, 0, {"y": 0.16666666666666666, "name": null}]]}, {"module": "keras.layers", "class_name": "Multiply", "config": {"name": "multiply_32", "trainable": false, "dtype": "float32"}, "registered_name": null, "build_config": {"input_shape": [[null, 7, 7, 576], [null, 7, 7, 576]]}, "name": "multiply_32", "inbound_nodes": [[["expanded_conv_9/depthwise/BatchNorm", 0, 0, {}], ["tf.math.multiply_48", 0, 0, {}]]]}, {"module": "keras.layers", "class_name": "GlobalAveragePooling2D", "config": {"name": "expanded_conv_9/squeeze_excite/AvgPool", "trainable": false, "dtype": "float32", "data_format": "channels_last", "keepdims": true}, "registered_name": null, "build_config": {"input_shape": [null, 7, 7, 576]}, "name": "expanded_conv_9/squeeze_excite/AvgPool", "inbound_nodes": [[["multiply_32", 0, 0, {}]]]}, {"module": "keras.layers", "class_name": "Conv2D", "config": {"name": "expanded_conv_9/squeeze_excite/Conv", "trainable": false, "dtype": "float32", "filters": 144, "kernel_size": [1, 1], "strides": [1, 1], "padding": "same", "data_format": "channels_last", "dilation_rate": [1, 1], "groups": 1, "activation": "linear", "use_bias": true, "kernel_initializer": {"module": "keras.initializers", "class_name": "GlorotUniform", "config": {"seed": null}, "registered_name": null}, "bias_initializer": {"module": "keras.initializers", "class_name": "Zeros", "config": {}, "registered_name": null}, "kernel_regularizer": null, "bias_regularizer": null, "activity_regularizer": null, "kernel_constraint": null, "bias_constraint": null}, "registered_name": null, "build_config": {"input_shape": [null, 1, 1, 576]}, "name": "expanded_conv_9/squeeze_excite/Conv", "inbound_nodes": [[["expanded_conv_9/squeeze_excite/AvgPool", 0, 0, {}]]]}, {"module": "keras.layers", "class_name": "ReLU", "config": {"name": "expanded_conv_9/squeeze_excite/Relu", "trainable": false, "dtype": "float32", "max_value": null, "negative_slope": 0.0, "threshold": 0.0}, "registered_name": null, "build_config": {"input_shape": [null, 1, 1, 144]}, "name": "expanded_conv_9/squeeze_excite/Relu", "inbound_nodes": [[["expanded_conv_9/squeeze_excite/Conv", 0, 0, {}]]]}, {"module": "keras.layers", "class_name": "Conv2D", "config": {"name": "expanded_conv_9/squeeze_excite/Conv_1", "trainable": false, "dtype": "float32", "filters": 576, "kernel_size": [1, 1], "strides": [1, 1], "padding": "same", "data_format": "channels_last", "dilation_rate": [1, 1], "groups": 1, "activation": "linear", "use_bias": true, "kernel_initializer": {"module": "keras.initializers", "class_name": "GlorotUniform", "config": {"seed": null}, "registered_name": null}, "bias_initializer": {"module": "keras.initializers", "class_name": "Zeros", "config": {}, "registered_name": null}, "kernel_regularizer": null, "bias_regularizer": null, "activity_regularizer": null, "kernel_constraint": null, "bias_constraint": null}, "registered_name": null, "build_config": {"input_shape": [null, 1, 1, 144]}, "name": "expanded_conv_9/squeeze_excite/Conv_1", "inbound_nodes": [[["expanded_conv_9/squeeze_excite/Relu", 0, 0, {}]]]}, {"module": "keras.src.layers.core.tf_op_layer", "class_name": "TFOpLambda", "config": {"name": "tf.__operators__.add_49", "trainable": false, "dtype": "float32", "function": "__operators__.add"}, "registered_name": "TFOpLambda", "build_config": {"input_shape": [null, 1, 1, 576]}, "name": "tf.__operators__.add_49", "inbound_nodes": [["expanded_conv_9/squeeze_excite/Conv_1", 0, 0, {"y": 3.0, "name": null}]]}, {"module": "keras.layers", "class_name": "ReLU", "config": {"name": "re_lu_59", "trainable": false, "dtype": "float32", "max_value": 6.0, "negative_slope": 0.0, "threshold": 0.0}, "registered_name": null, "build_config": {"input_shape": [null, 1, 1, 576]}, "name": "re_lu_59", "inbound_nodes": [[["tf.__operators__.add_49", 0, 0, {}]]]}, {"module": "keras.src.layers.core.tf_op_layer", "class_name": "TFOpLambda", "config": {"name": "tf.math.multiply_49", "trainable": false, "dtype": "float32", "function": "math.multiply"}, "registered_name": "TFOpLambda", "build_config": {"input_shape": [null, 1, 1, 576]}, "name": "tf.math.multiply_49", "inbound_nodes": [["re_lu_59", 0, 0, {"y": 0.16666666666666666, "name": null}]]}, {"module": "keras.layers", "class_name": "Multiply", "config": {"name": "expanded_conv_9/squeeze_excite/Mul", "trainable": false, "dtype": "float32"}, "registered_name": null, "build_config": {"input_shape": [[null, 7, 7, 576], [null, 1, 1, 576]]}, "name": "expanded_conv_9/squeeze_excite/Mul", "inbound_nodes": [[["multiply_32", 0, 0, {}], ["tf.math.multiply_49", 0, 0, {}]]]}, {"module": "keras.layers", "class_name": "Conv2D", "config": {"name": "expanded_conv_9/project", "trainable": false, "dtype": "float32", "filters": 96, "kernel_size": [1, 1], "strides": [1, 1], "padding": "same", "data_format": "channels_last", "dilation_rate": [1, 1], "groups": 1, "activation": "linear", "use_bias": false, "kernel_initializer": {"module": "keras.initializers", "class_name": "GlorotUniform", "config": {"seed": null}, "registered_name": null}, "bias_initializer": {"module": "keras.initializers", "class_name": "Zeros", "config": {}, "registered_name": null}, "kernel_regularizer": null, "bias_regularizer": null, "activity_regularizer": null, "kernel_constraint": null, "bias_constraint": null}, "registered_name": null, "build_config": {"input_shape": [null, 7, 7, 576]}, "name": "expanded_conv_9/project", "inbound_nodes": [[["expanded_conv_9/squeeze_excite/Mul", 0, 0, {}]]]}, {"module": "keras.layers", "class_name": "BatchNormalization", "config": {"name": "expanded_conv_9/project/BatchNorm", "trainable": false, "dtype": "float32", "axis": [3], "momentum": 0.999, "epsilon": 0.001, "center": true, "scale": true, "beta_initializer": {"module": "keras.initializers", "class_name": "Zeros", "config": {}, "registered_name": null}, "gamma_initializer": {"module": "keras.initializers", "class_name": "Ones", "config": {}, "registered_name": null}, "moving_mean_initializer": {"module": "keras.initializers", "class_name": "Zeros", "config": {}, "registered_name": null}, "moving_variance_initializer": {"module": "keras.initializers", "class_name": "Ones", "config": {}, "registered_name": null}, "beta_regularizer": null, "gamma_regularizer": null, "beta_constraint": null, "gamma_constraint": null}, "registered_name": null, "build_config": {"input_shape": [null, 7, 7, 96]}, "name": "expanded_conv_9/project/BatchNorm", "inbound_nodes": [[["expanded_conv_9/project", 0, 0, {}]]]}, {"module": "keras.layers", "class_name": "Add", "config": {"name": "expanded_conv_9/Add", "trainable": false, "dtype": "float32"}, "registered_name": null, "build_config": {"input_shape": [[null, 7, 7, 96], [null, 7, 7, 96]]}, "name": "expanded_conv_9/Add", "inbound_nodes": [[["expanded_conv_8/project/BatchNorm", 0, 0, {}], ["expanded_conv_9/project/BatchNorm", 0, 0, {}]]]}, {"module": "keras.layers", "class_name": "Conv2D", "config": {"name": "expanded_conv_10/expand", "trainable": false, "dtype": "float32", "filters": 576, "kernel_size": [1, 1], "strides": [1, 1], "padding": "same", "data_format": "channels_last", "dilation_rate": [1, 1], "groups": 1, "activation": "linear", "use_bias": false, "kernel_initializer": {"module": "keras.initializers", "class_name": "GlorotUniform", "config": {"seed": null}, "registered_name": null}, "bias_initializer": {"module": "keras.initializers", "class_name": "Zeros", "config": {}, "registered_name": null}, "kernel_regularizer": null, "bias_regularizer": null, "activity_regularizer": null, "kernel_constraint": null, "bias_constraint": null}, "registered_name": null, "build_config": {"input_shape": [null, 7, 7, 96]}, "name": "expanded_conv_10/expand", "inbound_nodes": [[["expanded_conv_9/Add", 0, 0, {}]]]}, {"module": "keras.layers", "class_name": "BatchNormalization", "config": {"name": "expanded_conv_10/expand/BatchNorm", "trainable": false, "dtype": "float32", "axis": [3], "momentum": 0.999, "epsilon": 0.001, "center": true, "scale": true, "beta_initializer": {"module": "keras.initializers", "class_name": "Zeros", "config": {}, "registered_name": null}, "gamma_initializer": {"module": "keras.initializers", "class_name": "Ones", "config": {}, "registered_name": null}, "moving_mean_initializer": {"module": "keras.initializers", "class_name": "Zeros", "config": {}, "registered_name": null}, "moving_variance_initializer": {"module": "keras.initializers", "class_name": "Ones", "config": {}, "registered_name": null}, "beta_regularizer": null, "gamma_regularizer": null, "beta_constraint": null, "gamma_constraint": null}, "registered_name": null, "build_config": {"input_shape": [null, 7, 7, 576]}, "name": "expanded_conv_10/expand/BatchNorm", "inbound_nodes": [[["expanded_conv_10/expand", 0, 0, {}]]]}, {"module": "keras.src.layers.core.tf_op_layer", "class_name": "TFOpLambda", "config": {"name": "tf.__operators__.add_50", "trainable": false, "dtype": "float32", "function": "__operators__.add"}, "registered_name": "TFOpLambda", "build_config": {"input_shape": [null, 7, 7, 576]}, "name": "tf.__operators__.add_50", "inbound_nodes": [["expanded_conv_10/expand/BatchNorm", 0, 0, {"y": 3.0, "name": null}]]}, {"module": "keras.layers", "class_name": "ReLU", "config": {"name": "re_lu_60", "trainable": false, "dtype": "float32", "max_value": 6.0, "negative_slope": 0.0, "threshold": 0.0}, "registered_name": null, "build_config": {"input_shape": [null, 7, 7, 576]}, "name": "re_lu_60", "inbound_nodes": [[["tf.__operators__.add_50", 0, 0, {}]]]}, {"module": "keras.src.layers.core.tf_op_layer", "class_name": "TFOpLambda", "config": {"name": "tf.math.multiply_50", "trainable": false, "dtype": "float32", "function": "math.multiply"}, "registered_name": "TFOpLambda", "build_config": {"input_shape": [null, 7, 7, 576]}, "name": "tf.math.multiply_50", "inbound_nodes": [["re_lu_60", 0, 0, {"y": 0.16666666666666666, "name": null}]]}, {"module": "keras.layers", "class_name": "Multiply", "config": {"name": "multiply_33", "trainable": false, "dtype": "float32"}, "registered_name": null, "build_config": {"input_shape": [[null, 7, 7, 576], [null, 7, 7, 576]]}, "name": "multiply_33", "inbound_nodes": [[["expanded_conv_10/expand/BatchNorm", 0, 0, {}], ["tf.math.multiply_50", 0, 0, {}]]]}, {"module": "keras.layers", "class_name": "DepthwiseConv2D", "config": {"name": "expanded_conv_10/depthwise", "trainable": false, "dtype": "float32", "kernel_size": [5, 5], "strides": [1, 1], "padding": "same", "data_format": "channels_last", "dilation_rate": [1, 1], "groups": 1, "activation": "linear", "use_bias": false, "bias_initializer": {"module": "keras.initializers", "class_name": "Zeros", "config": {}, "registered_name": null}, "bias_regularizer": null, "activity_regularizer": null, "bias_constraint": null, "depth_multiplier": 1, "depthwise_initializer": {"module": "keras.initializers", "class_name": "GlorotUniform", "config": {"seed": null}, "registered_name": null}, "depthwise_regularizer": null, "depthwise_constraint": null}, "registered_name": null, "build_config": {"input_shape": [null, 7, 7, 576]}, "name": "expanded_conv_10/depthwise", "inbound_nodes": [[["multiply_33", 0, 0, {}]]]}, {"module": "keras.layers", "class_name": "BatchNormalization", "config": {"name": "expanded_conv_10/depthwise/BatchNorm", "trainable": false, "dtype": "float32", "axis": [3], "momentum": 0.999, "epsilon": 0.001, "center": true, "scale": true, "beta_initializer": {"module": "keras.initializers", "class_name": "Zeros", "config": {}, "registered_name": null}, "gamma_initializer": {"module": "keras.initializers", "class_name": "Ones", "config": {}, "registered_name": null}, "moving_mean_initializer": {"module": "keras.initializers", "class_name": "Zeros", "config": {}, "registered_name": null}, "moving_variance_initializer": {"module": "keras.initializers", "class_name": "Ones", "config": {}, "registered_name": null}, "beta_regularizer": null, "gamma_regularizer": null, "beta_constraint": null, "gamma_constraint": null}, "registered_name": null, "build_config": {"input_shape": [null, 7, 7, 576]}, "name": "expanded_conv_10/depthwise/BatchNorm", "inbound_nodes": [[["expanded_conv_10/depthwise", 0, 0, {}]]]}, {"module": "keras.src.layers.core.tf_op_layer", "class_name": "TFOpLambda", "config": {"name": "tf.__operators__.add_51", "trainable": false, "dtype": "float32", "function": "__operators__.add"}, "registered_name": "TFOpLambda", "build_config": {"input_shape": [null, 7, 7, 576]}, "name": "tf.__operators__.add_51", "inbound_nodes": [["expanded_conv_10/depthwise/BatchNorm", 0, 0, {"y": 3.0, "name": null}]]}, {"module": "keras.layers", "class_name": "ReLU", "config": {"name": "re_lu_61", "trainable": false, "dtype": "float32", "max_value": 6.0, "negative_slope": 0.0, "threshold": 0.0}, "registered_name": null, "build_config": {"input_shape": [null, 7, 7, 576]}, "name": "re_lu_61", "inbound_nodes": [[["tf.__operators__.add_51", 0, 0, {}]]]}, {"module": "keras.src.layers.core.tf_op_layer", "class_name": "TFOpLambda", "config": {"name": "tf.math.multiply_51", "trainable": false, "dtype": "float32", "function": "math.multiply"}, "registered_name": "TFOpLambda", "build_config": {"input_shape": [null, 7, 7, 576]}, "name": "tf.math.multiply_51", "inbound_nodes": [["re_lu_61", 0, 0, {"y": 0.16666666666666666, "name": null}]]}, {"module": "keras.layers", "class_name": "Multiply", "config": {"name": "multiply_34", "trainable": false, "dtype": "float32"}, "registered_name": null, "build_config": {"input_shape": [[null, 7, 7, 576], [null, 7, 7, 576]]}, "name": "multiply_34", "inbound_nodes": [[["expanded_conv_10/depthwise/BatchNorm", 0, 0, {}], ["tf.math.multiply_51", 0, 0, {}]]]}, {"module": "keras.layers", "class_name": "GlobalAveragePooling2D", "config": {"name": "expanded_conv_10/squeeze_excite/AvgPool", "trainable": false, "dtype": "float32", "data_format": "channels_last", "keepdims": true}, "registered_name": null, "build_config": {"input_shape": [null, 7, 7, 576]}, "name": "expanded_conv_10/squeeze_excite/AvgPool", "inbound_nodes": [[["multiply_34", 0, 0, {}]]]}, {"module": "keras.layers", "class_name": "Conv2D", "config": {"name": "expanded_conv_10/squeeze_excite/Conv", "trainable": false, "dtype": "float32", "filters": 144, "kernel_size": [1, 1], "strides": [1, 1], "padding": "same", "data_format": "channels_last", "dilation_rate": [1, 1], "groups": 1, "activation": "linear", "use_bias": true, "kernel_initializer": {"module": "keras.initializers", "class_name": "GlorotUniform", "config": {"seed": null}, "registered_name": null}, "bias_initializer": {"module": "keras.initializers", "class_name": "Zeros", "config": {}, "registered_name": null}, "kernel_regularizer": null, "bias_regularizer": null, "activity_regularizer": null, "kernel_constraint": null, "bias_constraint": null}, "registered_name": null, "build_config": {"input_shape": [null, 1, 1, 576]}, "name": "expanded_conv_10/squeeze_excite/Conv", "inbound_nodes": [[["expanded_conv_10/squeeze_excite/AvgPool", 0, 0, {}]]]}, {"module": "keras.layers", "class_name": "ReLU", "config": {"name": "expanded_conv_10/squeeze_excite/Relu", "trainable": false, "dtype": "float32", "max_value": null, "negative_slope": 0.0, "threshold": 0.0}, "registered_name": null, "build_config": {"input_shape": [null, 1, 1, 144]}, "name": "expanded_conv_10/squeeze_excite/Relu", "inbound_nodes": [[["expanded_conv_10/squeeze_excite/Conv", 0, 0, {}]]]}, {"module": "keras.layers", "class_name": "Conv2D", "config": {"name": "expanded_conv_10/squeeze_excite/Conv_1", "trainable": false, "dtype": "float32", "filters": 576, "kernel_size": [1, 1], "strides": [1, 1], "padding": "same", "data_format": "channels_last", "dilation_rate": [1, 1], "groups": 1, "activation": "linear", "use_bias": true, "kernel_initializer": {"module": "keras.initializers", "class_name": "GlorotUniform", "config": {"seed": null}, "registered_name": null}, "bias_initializer": {"module": "keras.initializers", "class_name": "Zeros", "config": {}, "registered_name": null}, "kernel_regularizer": null, "bias_regularizer": null, "activity_regularizer": null, "kernel_constraint": null, "bias_constraint": null}, "registered_name": null, "build_config": {"input_shape": [null, 1, 1, 144]}, "name": "expanded_conv_10/squeeze_excite/Conv_1", "inbound_nodes": [[["expanded_conv_10/squeeze_excite/Relu", 0, 0, {}]]]}, {"module": "keras.src.layers.core.tf_op_layer", "class_name": "TFOpLambda", "config": {"name": "tf.__operators__.add_52", "trainable": false, "dtype": "float32", "function": "__operators__.add"}, "registered_name": "TFOpLambda", "build_config": {"input_shape": [null, 1, 1, 576]}, "name": "tf.__operators__.add_52", "inbound_nodes": [["expanded_conv_10/squeeze_excite/Conv_1", 0, 0, {"y": 3.0, "name": null}]]}, {"module": "keras.layers", "class_name": "ReLU", "config": {"name": "re_lu_62", "trainable": false, "dtype": "float32", "max_value": 6.0, "negative_slope": 0.0, "threshold": 0.0}, "registered_name": null, "build_config": {"input_shape": [null, 1, 1, 576]}, "name": "re_lu_62", "inbound_nodes": [[["tf.__operators__.add_52", 0, 0, {}]]]}, {"module": "keras.src.layers.core.tf_op_layer", "class_name": "TFOpLambda", "config": {"name": "tf.math.multiply_52", "trainable": false, "dtype": "float32", "function": "math.multiply"}, "registered_name": "TFOpLambda", "build_config": {"input_shape": [null, 1, 1, 576]}, "name": "tf.math.multiply_52", "inbound_nodes": [["re_lu_62", 0, 0, {"y": 0.16666666666666666, "name": null}]]}, {"module": "keras.layers", "class_name": "Multiply", "config": {"name": "expanded_conv_10/squeeze_excite/Mul", "trainable": false, "dtype": "float32"}, "registered_name": null, "build_config": {"input_shape": [[null, 7, 7, 576], [null, 1, 1, 576]]}, "name": "expanded_conv_10/squeeze_excite/Mul", "inbound_nodes": [[["multiply_34", 0, 0, {}], ["tf.math.multiply_52", 0, 0, {}]]]}, {"module": "keras.layers", "class_name": "Conv2D", "config": {"name": "expanded_conv_10/project", "trainable": false, "dtype": "float32", "filters": 96, "kernel_size": [1, 1], "strides": [1, 1], "padding": "same", "data_format": "channels_last", "dilation_rate": [1, 1], "groups": 1, "activation": "linear", "use_bias": false, "kernel_initializer": {"module": "keras.initializers", "class_name": "GlorotUniform", "config": {"seed": null}, "registered_name": null}, "bias_initializer": {"module": "keras.initializers", "class_name": "Zeros", "config": {}, "registered_name": null}, "kernel_regularizer": null, "bias_regularizer": null, "activity_regularizer": null, "kernel_constraint": null, "bias_constraint": null}, "registered_name": null, "build_config": {"input_shape": [null, 7, 7, 576]}, "name": "expanded_conv_10/project", "inbound_nodes": [[["expanded_conv_10/squeeze_excite/Mul", 0, 0, {}]]]}, {"module": "keras.layers", "class_name": "BatchNormalization", "config": {"name": "expanded_conv_10/project/BatchNorm", "trainable": false, "dtype": "float32", "axis": [3], "momentum": 0.999, "epsilon": 0.001, "center": true, "scale": true, "beta_initializer": {"module": "keras.initializers", "class_name": "Zeros", "config": {}, "registered_name": null}, "gamma_initializer": {"module": "keras.initializers", "class_name": "Ones", "config": {}, "registered_name": null}, "moving_mean_initializer": {"module": "keras.initializers", "class_name": "Zeros", "config": {}, "registered_name": null}, "moving_variance_initializer": {"module": "keras.initializers", "class_name": "Ones", "config": {}, "registered_name": null}, "beta_regularizer": null, "gamma_regularizer": null, "beta_constraint": null, "gamma_constraint": null}, "registered_name": null, "build_config": {"input_shape": [null, 7, 7, 96]}, "name": "expanded_conv_10/project/BatchNorm", "inbound_nodes": [[["expanded_conv_10/project", 0, 0, {}]]]}, {"module": "keras.layers", "class_name": "Add", "config": {"name": "expanded_conv_10/Add", "trainable": false, "dtype": "float32"}, "registered_name": null, "build_config": {"input_shape": [[null, 7, 7, 96], [null, 7, 7, 96]]}, "name": "expanded_conv_10/Add", "inbound_nodes": [[["expanded_conv_9/Add", 0, 0, {}], ["expanded_conv_10/project/BatchNorm", 0, 0, {}]]]}, {"module": "keras.layers", "class_name": "Conv2D", "config": {"name": "Conv_1", "trainable": false, "dtype": "float32", "filters": 576, "kernel_size": [1, 1], "strides": [1, 1], "padding": "same", "data_format": "channels_last", "dilation_rate": [1, 1], "groups": 1, "activation": "linear", "use_bias": false, "kernel_initializer": {"module": "keras.initializers", "class_name": "GlorotUniform", "config": {"seed": null}, "registered_name": null}, "bias_initializer": {"module": "keras.initializers", "class_name": "Zeros", "config": {}, "registered_name": null}, "kernel_regularizer": null, "bias_regularizer": null, "activity_regularizer": null, "kernel_constraint": null, "bias_constraint": null}, "registered_name": null, "build_config": {"input_shape": [null, 7, 7, 96]}, "name": "Conv_1", "inbound_nodes": [[["expanded_conv_10/Add", 0, 0, {}]]]}, {"module": "keras.layers", "class_name": "BatchNormalization", "config": {"name": "Conv_1/BatchNorm", "trainable": false, "dtype": "float32", "axis": [3], "momentum": 0.999, "epsilon": 0.001, "center": true, "scale": true, "beta_initializer": {"module": "keras.initializers", "class_name": "Zeros", "config": {}, "registered_name": null}, "gamma_initializer": {"module": "keras.initializers", "class_name": "Ones", "config": {}, "registered_name": null}, "moving_mean_initializer": {"module": "keras.initializers", "class_name": "Zeros", "config": {}, "registered_name": null}, "moving_variance_initializer": {"module": "keras.initializers", "class_name": "Ones", "config": {}, "registered_name": null}, "beta_regularizer": null, "gamma_regularizer": null, "beta_constraint": null, "gamma_constraint": null}, "registered_name": null, "build_config": {"input_shape": [null, 7, 7, 576]}, "name": "Conv_1/BatchNorm", "inbound_nodes": [[["Conv_1", 0, 0, {}]]]}, {"module": "keras.src.layers.core.tf_op_layer", "class_name": "TFOpLambda", "config": {"name": "tf.__operators__.add_53", "trainable": false, "dtype": "float32", "function": "__operators__.add"}, "registered_name": "TFOpLambda", "build_config": {"input_shape": [null, 7, 7, 576]}, "name": "tf.__operators__.add_53", "inbound_nodes": [["Conv_1/BatchNorm", 0, 0, {"y": 3.0, "name": null}]]}, {"module": "keras.layers", "class_name": "ReLU", "config": {"name": "re_lu_63", "trainable": false, "dtype": "float32", "max_value": 6.0, "negative_slope": 0.0, "threshold": 0.0}, "registered_name": null, "build_config": {"input_shape": [null, 7, 7, 576]}, "name": "re_lu_63", "inbound_nodes": [[["tf.__operators__.add_53", 0, 0, {}]]]}, {"module": "keras.src.layers.core.tf_op_layer", "class_name": "TFOpLambda", "config": {"name": "tf.math.multiply_53", "trainable": false, "dtype": "float32", "function": "math.multiply"}, "registered_name": "TFOpLambda", "build_config": {"input_shape": [null, 7, 7, 576]}, "name": "tf.math.multiply_53", "inbound_nodes": [["re_lu_63", 0, 0, {"y": 0.16666666666666666, "name": null}]]}, {"module": "keras.layers", "class_name": "Multiply", "config": {"name": "multiply_35", "trainable": false, "dtype": "float32"}, "registered_name": null, "build_config": {"input_shape": [[null, 7, 7, 576], [null, 7, 7, 576]]}, "name": "multiply_35", "inbound_nodes": [[["Conv_1/BatchNorm", 0, 0, {}], ["tf.math.multiply_53", 0, 0, {}]]]}], "input_layers": [["input_2", 0, 0]], "output_layers": [["multiply_35", 0, 0]]}}, {"class_name": "GlobalAveragePooling2D", "config": {"name": "global_average_pooling2d_1", "trainable": true, "dtype": "float32", "data_format": "channels_last", "keepdims": false}}, {"class_name": "Dense", "config": {"name": "dense_2", "trainable": true, "dtype": "float32", "units": 128, "activation": "relu", "use_bias": true, "kernel_initializer": {"module": "keras.initializers", "class_name": "GlorotUniform", "config": {"seed": null}, "registered_name": null}, "bias_initializer": {"module": "keras.initializers", "class_name": "Zeros", "config": {}, "registered_name": null}, "kernel_regularizer": null, "bias_regularizer": null, "activity_regularizer": null, "kernel_constraint": null, "bias_constraint": null}}, {"class_name": "Dropout", "config": {"name": "dropout_1", "trainable": true, "dtype": "float32", "rate": 0.3, "noise_shape": null, "seed": null}}, {"class_name": "Dense", "config": {"name": "dense_3", "trainable": true, "dtype": "float32", "units": 8, "activation": "softmax", "use_bias": true, "kernel_initializer": {"module": "keras.initializers", "class_name": "GlorotUniform", "config": {"seed": null}, "registered_name": null}, "bias_initializer": {"module": "keras.initializers", "class_name": "Zeros", "config": {}, "registered_name": null}, "kernel_regularizer": null, "bias_regularizer": null, "activity_regularizer": null, "kernel_constraint": null, "bias_constraint": null}}]}}, "training_config": {"loss": "categorical_crossentropy", "metrics": [[{"class_name": "MeanMetricWrapper", "config": {"name": "accuracy", "dtype": "float32", "fn": "categorical_accuracy"}}]], "weighted_metrics": null, "loss_weights": null, "optimizer_config": {"class_name": "Custom>Adam", "config": {"name": "Adam", "weight_decay": null, "clipnorm": null, "global_clipnorm": null, "clipvalue": null, "use_ema": false, "ema_momentum": 0.99, "ema_overwrite_frequency": null, "jit_compile": false, "is_legacy_optimizer": false, "learning_rate": 0.0010000000474974513, "beta_1": 0.9, "beta_2": 0.999, "epsilon": 1e-07, "amsgrad": false}}}}, "weightsManifest": [{"paths": ["group1-shard1of1.bin"], "weights": [{"name": "Conv/kernel", "shape": [3, 3, 3, 16], "dtype": "float32"}, {"name": "Conv/BatchNorm/gamma", "shape": [16], "dtype": "float32"}, {"name": "Conv/BatchNorm/beta", "shape": [16], "dtype": "float32"}, {"name": "Conv/BatchNorm/moving_mean", "shape": [16], "dtype": "float32"}, {"name": "Conv/BatchNorm/moving_variance", "shape": [16], "dtype": "float32"}, {"name": "expanded_conv/depthwise/depthwise_kernel", "shape": [3, 3, 16, 1], "dtype": "float32"}, {"name": "expanded_conv/depthwise/BatchNorm/gamma", "shape": [16], "dtype": "float32"}, {"name": "expanded_conv/depthwise/BatchNorm/beta", "shape": [16], "dtype": "float32"}, {"name": "expanded_conv/depthwise/BatchNorm/moving_mean", "shape": [16], "dtype": "float32"}, {"name": "expanded_conv/depthwise/BatchNorm/moving_variance", "shape": [16], "dtype": "float32"}, {"name": "expanded_conv/squeeze_excite/Conv/kernel", "shape": [1, 1, 16, 8], "dtype": "float32"}, {"name": "expanded_conv/squeeze_excite/Conv/bias", "shape": [8], "dtype": "float32"}, {"name": "expanded_conv/squeeze_excite/Conv_1/kernel", "shape": [1, 1, 8, 16], "dtype": "float32"}, {"name": "expanded_conv/squeeze_excite/Conv_1/bias", "shape": [16], "dtype": "float32"}, {"name": "expanded_conv/project/kernel", "shape": [1, 1, 16, 16], "dtype": "float32"}, {"name": "expanded_conv/project/BatchNorm/gamma", "shape": [16], "dtype": "float32"}, {"name": "expanded_conv/project/BatchNorm/beta", "shape": [16], "dtype": "float32"}, {"name": "expanded_conv/project/BatchNorm/moving_mean", "shape": [16], "dtype": "float32"}, {"name": "expanded_conv/project/BatchNorm/moving_variance", "shape": [16], "dtype": "float32"}, {"name": "expanded_conv_1/expand/kernel", "shape": [1, 1, 16, 72], "dtype": "float32"}, {"name": "expanded_conv_1/expand/BatchNorm/gamma", "shape": [72], "dtype": "float32"}, {"name": "expanded_conv_1/expand/BatchNorm/beta", "shape": [72], "dtype": "float32"}, {"name": "expanded_conv_1/expand/BatchNorm/moving_mean", "shape": [72], "dtype": "float32"}, {"name": "expanded_conv_1/expand/BatchNorm/moving_variance", "shape": [72], "dtype": "float32"}, {"name": "expanded_conv_1/depthwise/depthwise_kernel", "shape": [3, 3, 72, 1], "dtype": "float32"}, {"name": "expanded_conv_1/depthwise/BatchNorm/gamma", "shape": [72], "dtype": "float32"}, {"name": "expanded_conv_1/depthwise/BatchNorm/beta", "shape": [72], "dtype": "float32"}, {"name": "expanded_conv_1/depthwise/BatchNorm/moving_mean", "shape": [72], "dtype": "float32"}, {"name": "expanded_conv_1/depthwise/BatchNorm/moving_variance", "shape": [72], "dtype": "float32"}, {"name": "expanded_conv_1/project/kernel", "shape": [1, 1, 72, 24], "dtype": "float32"}, {"name": "expanded_conv_1/project/BatchNorm/gamma", "shape": [24], "dtype": "float32"}, {"name": "expanded_conv_1/project/BatchNorm/beta", "shape": [24], "dtype": "float32"}, {"name": "expanded_conv_1/project/BatchNorm/moving_mean", "shape": [24], "dtype": "float32"}, {"name": "expanded_conv_1/project/BatchNorm/moving_variance", "shape": [24], "dtype": "float32"}, {"name": "expanded_conv_2/expand/kernel", "shape": [1, 1, 24, 88], "dtype": "float32"}, {"name": "expanded_conv_2/expand/BatchNorm/gamma", "shape": [88], "dtype": "float32"}, {"name": "expanded_conv_2/expand/BatchNorm/beta", "shape": [88], "dtype": "float32"}, {"name": "expanded_conv_2/expand/BatchNorm/moving_mean", "shape": [88], "dtype": "float32"}, {"name": "expanded_conv_2/expand/BatchNorm/moving_variance", "shape": [88], "dtype": "float32"}, {"name": "expanded_conv_2/depthwise/depthwise_kernel", "shape": [3, 3, 88, 1], "dtype": "float32"}, {"name": "expanded_conv_2/depthwise/BatchNorm/gamma", "shape": [88], "dtype": "float32"}, {"name": "expanded_conv_2/depthwise/BatchNorm/beta", "shape": [88], "dtype": "float32"}, {"name": "expanded_conv_2/depthwise/BatchNorm/moving_mean", "shape": [88], "dtype": "float32"}, {"name": "expanded_conv_2/depthwise/BatchNorm/moving_variance", "shape": [88], "dtype": "float32"}, {"name": "expanded_conv_2/project/kernel", "shape": [1, 1, 88, 24], "dtype": "float32"}, {"name": "expanded_conv_2/project/BatchNorm/gamma", "shape": [24], "dtype": "float32"}, {"name": "expanded_conv_2/project/BatchNorm/beta", "shape": [24], "dtype": "float32"}, {"name": "expanded_conv_2/project/BatchNorm/moving_mean", "shape": [24], "dtype": "float32"}, {"name": "expanded_conv_2/project/BatchNorm/moving_variance", "shape": [24], "dtype": "float32"}, {"name": "expanded_conv_3/expand/kernel", "shape": [1, 1, 24, 96], "dtype": "float32"}, {"name": "expanded_conv_3/expand/BatchNorm/gamma", "shape": [96], "dtype": "float32"}, {"name": "expanded_conv_3/expand/BatchNorm/beta", "shape": [96], "dtype": "float32"}, {"name": "expanded_conv_3/expand/BatchNorm/moving_mean", "shape": [96], "dtype": "float32"}, {"name": "expanded_conv_3/expand/BatchNorm/moving_variance", "shape": [96], "dtype": "float32"}, {"name": "expanded_conv_3/depthwise/depthwise_kernel", "shape": [5, 5, 96, 1], "dtype": "float32"}, {"name": "expanded_conv_3/depthwise/BatchNorm/gamma", "shape": [96], "dtype": "float32"}, {"name": "expanded_conv_3/depthwise/BatchNorm/beta", "shape": [96], "dtype": "float32"}, {"name": "expanded_conv_3/depthwise/BatchNorm/moving_mean", "shape": [96], "dtype": "float32"}, {"name": "expanded_conv_3/depthwise/BatchNorm/moving_variance", "shape": [96], "dtype": "float32"}, {"name": "expanded_conv_3/squeeze_excite/Conv/kernel", "shape": [1, 1, 96, 24], "dtype": "float32"}, {"name": "expanded_conv_3/squeeze_excite/Conv/bias", "shape": [24], "dtype": "float32"}, {"name": "expanded_conv_3/squeeze_excite/Conv_1/kernel", "shape": [1, 1, 24, 96], "dtype": "float32"}, {"name": "expanded_conv_3/squeeze_excite/Conv_1/bias", "shape": [96], "dtype": "float32"}, {"name": "expanded_conv_3/project/kernel", "shape": [1, 1, 96, 40], "dtype": "float32"}, {"name": "expanded_conv_3/project/BatchNorm/gamma", "shape": [40], "dtype": "float32"}, {"name": "expanded_conv_3/project/BatchNorm/beta", "shape": [40], "dtype": "float32"}, {"name": "expanded_conv_3/project/BatchNorm/moving_mean", "shape": [40], "dtype": "float32"}, {"name": "expanded_conv_3/project/BatchNorm/moving_variance", "shape": [40], "dtype": "float32"}, {"name": "expanded_conv_4/expand/kernel", "shape": [1, 1, 40, 240], "dtype": "float32"}, {"name": "expanded_conv_4/expand/BatchNorm/gamma", "shape": [240], "dtype": "float32"}, {"name": "expanded_conv_4/expand/BatchNorm/beta", "shape": [240], "dtype": "float32"}, {"name": "expanded_conv_4/expand/BatchNorm/moving_mean", "shape": [240], "dtype": "float32"}, {"name": "expanded_conv_4/expand/BatchNorm/moving_variance", "shape": [240], "dtype": "float32"}, {"name": "expanded_conv_4/depthwise/depthwise_kernel", "shape": [5, 5, 240, 1], "dtype": "float32"}, {"name": "expanded_conv_4/depthwise/BatchNorm/gamma", "shape": [240], "dtype": "float32"}, {"name": "expanded_conv_4/depthwise/BatchNorm/beta", "shape": [240], "dtype": "float32"}, {"name": "expanded_conv_4/depthwise/BatchNorm/moving_mean", "shape": [240], "dtype": "float32"}, {"name": "expanded_conv_4/depthwise/BatchNorm/moving_variance", "shape": [240], "dtype": "float32"}, {"name": "expanded_conv_4/squeeze_excite/Conv/kernel", "shape": [1, 1, 240, 64], "dtype": "float32"}, {"name": "expanded_conv_4/squeeze_excite/Conv/bias", "shape": [64], "dtype": "float32"}, {"name": "expanded_conv_4/squeeze_excite/Conv_1/kernel", "shape": [1, 1, 64, 240], "dtype": "float32"}, {"name": "expanded_conv_4/squeeze_excite/Conv_1/bias", "shape": [240], "dtype": "float32"}, {"name": "expanded_conv_4/project/kernel", "shape": [1, 1, 240, 40], "dtype": "float32"}, {"name": "expanded_conv_4/project/BatchNorm/gamma", "shape": [40], "dtype": "float32"}, {"name": "expanded_conv_4/project/BatchNorm/beta", "shape": [40], "dtype": "float32"}, {"name": "expanded_conv_4/project/BatchNorm/moving_mean", "shape": [40], "dtype": "float32"}, {"name": "expanded_conv_4/project/BatchNorm/moving_variance", "shape": [40], "dtype": "float32"}, {"name": "expanded_conv_5/expand/kernel", "shape": [1, 1, 40, 240], "dtype": "float32"}, {"name": "expanded_conv_5/expand/BatchNorm/gamma", "shape": [240], "dtype": "float32"}, {"name": "expanded_conv_5/expand/BatchNorm/beta", "shape": [240], "dtype": "float32"}, {"name": "expanded_conv_5/expand/BatchNorm/moving_mean", "shape": [240], "dtype": "float32"}, {"name": "expanded_conv_5/expand/BatchNorm/moving_variance", "shape": [240], "dtype": "float32"}, {"name": "expanded_conv_5/depthwise/depthwise_kernel", "shape": [5, 5, 240, 1], "dtype": "float32"}, {"name": "expanded_conv_5/depthwise/BatchNorm/gamma", "shape": [240], "dtype": "float32"}, {"name": "expanded_conv_5/depthwise/BatchNorm/beta", "shape": [240], "dtype": "float32"}, {"name": "expanded_conv_5/depthwise/BatchNorm/moving_mean", "shape": [240], "dtype": "float32"}, {"name": "expanded_conv_5/depthwise/BatchNorm/moving_variance", "shape": [240], "dtype": "float32"}, {"name": "expanded_conv_5/squeeze_excite/Conv/kernel", "shape": [1, 1, 240, 64], "dtype": "float32"}, {"name": "expanded_conv_5/squeeze_excite/Conv/bias", "shape": [64], "dtype": "float32"}, {"name": "expanded_conv_5/squeeze_excite/Conv_1/kernel", "shape": [1, 1, 64, 240], "dtype": "float32"}, {"name": "expanded_conv_5/squeeze_excite/Conv_1/bias", "shape": [240], "dtype": "float32"}, {"name": "expanded_conv_5/project/kernel", "shape": [1, 1, 240, 40], "dtype": "float32"}, {"name": "expanded_conv_5/project/BatchNorm/gamma", "shape": [40], "dtype": "float32"}, {"name": "expanded_conv_5/project/BatchNorm/beta", "shape": [40], "dtype": "float32"}, {"name": "expanded_conv_5/project/BatchNorm/moving_mean", "shape": [40], "dtype": "float32"}, {"name": "expanded_conv_5/project/BatchNorm/moving_variance", "shape": [40], "dtype": "float32"}, {"name": "expanded_conv_6/expand/kernel", "shape": [1, 1, 40, 120], "dtype": "float32"}, {"name": "expanded_conv_6/expand/BatchNorm/gamma", "shape": [120], "dtype": "float32"}, {"name": "expanded_conv_6/expand/BatchNorm/beta", "shape": [120], "dtype": "float32"}, {"name": "expanded_conv_6/expand/BatchNorm/moving_mean", "shape": [120], "dtype": "float32"}, {"name": "expanded_conv_6/expand/BatchNorm/moving_variance", "shape": [120], "dtype": "float32"}, {"name": "expanded_conv_6/depthwise/depthwise_kernel", "shape": [5, 5, 120, 1], "dtype": "float32"}, {"name": "expanded_conv_6/depthwise/BatchNorm/gamma", "shape": [120], "dtype": "float32"}, {"name": "expanded_conv_6/depthwise/BatchNorm/beta", "shape": [120], "dtype": "float32"}, {"name": "expanded_conv_6/depthwise/BatchNorm/moving_mean", "shape": [120], "dtype": "float32"}, {"name": "expanded_conv_6/depthwise/BatchNorm/moving_variance", "shape": [120], "dtype": "float32"}, {"name": "expanded_conv_6/squeeze_excite/Conv/kernel", "shape": [1, 1, 120, 32], "dtype": "float32"}, {"name": "expanded_conv_6/squeeze_excite/Conv/bias", "shape": [32], "dtype": "float32"}, {"name": "expanded_conv_6/squeeze_excite/Conv_1/kernel", "shape": [1, 1, 32, 120], "dtype": "float32"}, {"name": "expanded_conv_6/squeeze_excite/Conv_1/bias", "shape": [120], "dtype": "float32"}, {"name": "expanded_conv_6/project/kernel", "shape": [1, 1, 120, 48], "dtype": "float32"}, {"name": "expanded_conv_6/project/BatchNorm/gamma", "shape": [48], "dtype": "float32"}, {"name": "expanded_conv_6/project/BatchNorm/beta", "shape": [48], "dtype": "float32"}, {"name": "expanded_conv_6/project/BatchNorm/moving_mean", "shape": [48], "dtype": "float32"}, {"name": "expanded_conv_6/project/BatchNorm/moving_variance", "shape": [48], "dtype": "float32"}, {"name": "expanded_conv_7/expand/kernel", "shape": [1, 1, 48, 144], "dtype": "float32"}, {"name": "expanded_conv_7/expand/BatchNorm/gamma", "shape": [144], "dtype": "float32"}, {"name": "expanded_conv_7/expand/BatchNorm/beta", "shape": [144], "dtype": "float32"}, {"name": "expanded_conv_7/expand/BatchNorm/moving_mean", "shape": [144], "dtype": "float32"}, {"name": "expanded_conv_7/expand/BatchNorm/moving_variance", "shape": [144], "dtype": "float32"}, {"name": "expanded_conv_7/depthwise/depthwise_kernel", "shape": [5, 5, 144, 1], "dtype": "float32"}, {"name": "expanded_conv_7/depthwise/BatchNorm/gamma", "shape": [144], "dtype": "float32"}, {"name": "expanded_conv_7/depthwise/BatchNorm/beta", "shape": [144], "dtype": "float32"}, {"name": "expanded_conv_7/depthwise/BatchNorm/moving_mean", "shape": [144], "dtype": "float32"}, {"name": "expanded_conv_7/depthwise/BatchNorm/moving_variance", "shape": [144], "dtype": "float32"}, {"name": "expanded_conv_7/squeeze_excite/Conv/kernel", "shape": [1, 1, 144, 40], "dtype": "float32"}, {"name": "expanded_conv_7/squeeze_excite/Conv/bias", "shape": [40], "dtype": "float32"}, {"name": "expanded_conv_7/squeeze_excite/Conv_1/kernel", "shape": [1, 1, 40, 144], "dtype": "float32"}, {"name": "expanded_conv_7/squeeze_excite/Conv_1/bias", "shape": [144], "dtype": "float32"}, {"name": "expanded_conv_7/project/kernel", "shape": [1, 1, 144, 48], "dtype": "float32"}, {"name": "expanded_conv_7/project/BatchNorm/gamma", "shape": [48], "dtype": "float32"}, {"name": "expanded_conv_7/project/BatchNorm/beta", "shape": [48], "dtype": "float32"}, {"name": "expanded_conv_7/project/BatchNorm/moving_mean", "shape": [48], "dtype": "float32"}, {"name": "expanded_conv_7/project/BatchNorm/moving_variance", "shape": [48], "dtype": "float32"}, {"name": "expanded_conv_8/expand/kernel", "shape": [1, 1, 48, 288], "dtype": "float32"}, {"name": "expanded_conv_8/expand/BatchNorm/gamma", "shape": [288], "dtype": "float32"}, {"name": "expanded_conv_8/expand/BatchNorm/beta", "shape": [288], "dtype": "float32"}, {"name": "expanded_conv_8/expand/BatchNorm/moving_mean", "shape": [288], "dtype": "float32"}, {"name": "expanded_conv_8/expand/BatchNorm/moving_variance", "shape": [288], "dtype": "float32"}, {"name": "expanded_conv_8/depthwise/depthwise_kernel", "shape": [5, 5, 288, 1], "dtype": "float32"}, {"name": "expanded_conv_8/depthwise/BatchNorm/gamma", "shape": [288], "dtype": "float32"}, {"name": "expanded_conv_8/depthwise/BatchNorm/beta", "shape": [288], "dtype": "float32"}, {"name": "expanded_conv_8/depthwise/BatchNorm/moving_mean", "shape": [288], "dtype": "float32"}, {"name": "expanded_conv_8/depthwise/BatchNorm/moving_variance", "shape": [288], "dtype": "float32"}, {"name": "expanded_conv_8/squeeze_excite/Conv/kernel", "shape": [1, 1, 288, 72], "dtype": "float32"}, {"name": "expanded_conv_8/squeeze_excite/Conv/bias", "shape": [72], "dtype": "float32"}, {"name": "expanded_conv_8/squeeze_excite/Conv_1/kernel", "shape": [1, 1, 72, 288], "dtype": "float32"}, {"name": "expanded_conv_8/squeeze_excite/Conv_1/bias", "shape": [288], "dtype": "float32"}, {"name": "expanded_conv_8/project/kernel", "shape": [1, 1, 288, 96], "dtype": "float32"}, {"name": "expanded_conv_8/project/BatchNorm/gamma", "shape": [96], "dtype": "float32"}, {"name": "expanded_conv_8/project/BatchNorm/beta", "shape": [96], "dtype": "float32"}, {"name": "expanded_conv_8/project/BatchNorm/moving_mean", "shape": [96], "dtype": "float32"}, {"name": "expanded_conv_8/project/BatchNorm/moving_variance", "shape": [96], "dtype": "float32"}, {"name": "expanded_conv_9/expand/kernel", "shape": [1, 1, 96, 576], "dtype": "float32"}, {"name": "expanded_conv_9/expand/BatchNorm/gamma", "shape": [576], "dtype": "float32"}, {"name": "expanded_conv_9/expand/BatchNorm/beta", "shape": [576], "dtype": "float32"}, {"name": "expanded_conv_9/expand/BatchNorm/moving_mean", "shape": [576], "dtype": "float32"}, {"name": "expanded_conv_9/expand/BatchNorm/moving_variance", "shape": [576], "dtype": "float32"}, {"name": "expanded_conv_9/depthwise/depthwise_kernel", "shape": [5, 5, 576, 1], "dtype": "float32"}, {"name": "expanded_conv_9/depthwise/BatchNorm/gamma", "shape": [576], "dtype": "float32"}, {"name": "expanded_conv_9/depthwise/BatchNorm/beta", "shape": [576], "dtype": "float32"}, {"name": "expanded_conv_9/depthwise/BatchNorm/moving_mean", "shape": [576], "dtype": "float32"}, {"name": "expanded_conv_9/depthwise/BatchNorm/moving_variance", "shape": [576], "dtype": "float32"}, {"name": "expanded_conv_9/squeeze_excite/Conv/kernel", "shape": [1, 1, 576, 144], "dtype": "float32"}, {"name": "expanded_conv_9/squeeze_excite/Conv/bias", "shape": [144], "dtype": "float32"}, {"name": "expanded_conv_9/squeeze_excite/Conv_1/kernel", "shape": [1, 1, 144, 576], "dtype": "float32"}, {"name": "expanded_conv_9/squeeze_excite/Conv_1/bias", "shape": [576], "dtype": "float32"}, {"name": "expanded_conv_9/project/kernel", "shape": [1, 1, 576, 96], "dtype": "float32"}, {"name": "expanded_conv_9/project/BatchNorm/gamma", "shape": [96], "dtype": "float32"}, {"name": "expanded_conv_9/project/BatchNorm/beta", "shape": [96], "dtype": "float32"}, {"name": "expanded_conv_9/project/BatchNorm/moving_mean", "shape": [96], "dtype": "float32"}, {"name": "expanded_conv_9/project/BatchNorm/moving_variance", "shape": [96], "dtype": "float32"}, {"name": "expanded_conv_10/expand/kernel", "shape": [1, 1, 96, 576], "dtype": "float32"}, {"name": "expanded_conv_10/expand/BatchNorm/gamma", "shape": [576], "dtype": "float32"}, {"name": "expanded_conv_10/expand/BatchNorm/beta", "shape": [576], "dtype": "float32"}, {"name": "expanded_conv_10/expand/BatchNorm/moving_mean", "shape": [576], "dtype": "float32"}, {"name": "expanded_conv_10/expand/BatchNorm/moving_variance", "shape": [576], "dtype": "float32"}, {"name": "expanded_conv_10/depthwise/depthwise_kernel", "shape": [5, 5, 576, 1], "dtype": "float32"}, {"name": "expanded_conv_10/depthwise/BatchNorm/gamma", "shape": [576], "dtype": "float32"}, {"name": "expanded_conv_10/depthwise/BatchNorm/beta", "shape": [576], "dtype": "float32"}, {"name": "expanded_conv_10/depthwise/BatchNorm/moving_mean", "shape": [576], "dtype": "float32"}, {"name": "expanded_conv_10/depthwise/BatchNorm/moving_variance", "shape": [576], "dtype": "float32"}, {"name": "expanded_conv_10/squeeze_excite/Conv/kernel", "shape": [1, 1, 576, 144], "dtype": "float32"}, {"name": "expanded_conv_10/squeeze_excite/Conv/bias", "shape": [144], "dtype": "float32"}, {"name": "expanded_conv_10/squeeze_excite/Conv_1/kernel", "shape": [1, 1, 144, 576], "dtype": "float32"}, {"name": "expanded_conv_10/squeeze_excite/Conv_1/bias", "shape": [576], "dtype": "float32"}, {"name": "expanded_conv_10/project/kernel", "shape": [1, 1, 576, 96], "dtype": "float32"}, {"name": "expanded_conv_10/project/BatchNorm/gamma", "shape": [96], "dtype": "float32"}, {"name": "expanded_conv_10/project/BatchNorm/beta", "shape": [96], "dtype": "float32"}, {"name": "expanded_conv_10/project/BatchNorm/moving_mean", "shape": [96], "dtype": "float32"}, {"name": "expanded_conv_10/project/BatchNorm/moving_variance", "shape": [96], "dtype": "float32"}, {"name": "Conv_1/kernel", "shape": [1, 1, 96, 576], "dtype": "float32"}, {"name": "Conv_1/BatchNorm/gamma", "shape": [576], "dtype": "float32"}, {"name": "Conv_1/BatchNorm/beta", "shape": [576], "dtype": "float32"}, {"name": "Conv_1/BatchNorm/moving_mean", "shape": [576], "dtype": "float32"}, {"name": "Conv_1/BatchNorm/moving_variance", "shape": [576], "dtype": "float32"}, {"name": "dense_2/kernel", "shape": [576, 128], "dtype": "float32"}, {"name": "dense_2/bias", "shape": [128], "dtype": "float32"}, {"name": "dense_3/kernel", "shape": [128, 8], "dtype": "float32"}, {"name": "dense_3/bias", "shape": [8], "dtype": "float32"}]}]}